trained_model.pt (torch, 3334 bytes, 5 tensors)

batch_norm.weight f4 [5]
00000000: cfac 773f 5044 793f 289c 773f 367d 793f
00000010: 9a71 793f
0.9674806 0.9736986 0.9672265 0.9745668 0.9743897

batch_norm.bias f4 [5]
00000000: 0db5 1dbc d4c2 b63b 5089 f93c 8d63 24bc
00000010: f189 38bb
-0.009625685 0.0055774245 0.030460984 -0.0100335 -0.0028158391

batch_norm.running_mean f4 [5]
00000000: 3fcb 6c3c 328b 1f3c 60af 7ab9 bff4 0d3c
00000010: 1d75 a83c
0.0144527545 0.009737777 -0.0002390719 0.008664309 0.020563656

batch_norm.running_var f4 [5]
00000000: e6ba 7b3f 682c 803f c68e 833f a4db 823f
00000010: b621 833f
0.9833206 1.0013552 1.0277946 1.0223279 1.0244663

linear.weight f4 [1, 5]
00000000: 468a 223f ce39 4f3e 970d b2bf 82e2 3b3e
00000010: fd25 443e
0.6349224 0.20236894 -1.3910397 0.18348125 0.19155116
