notebooks/trained_model.pt (torch, 3334 bytes, 5 tensors)

batch_norm.weight f4 [5]
0	0x3f78dc15	0.9721082
1	0x3f7b18f2	0.9808494
2	0x3f785267	0.97000736
3	0x3f79b7bb	0.97545975
4	0x3f7d888f	0.99036497

batch_norm.bias f4 [5]
0	0xbc0b32ff	-0.008496045
1	0x3aa695ae	0.0012709403
2	0x3c943c76	0.018095236
3	0xbc005653	-0.007833081
4	0xbbac425a	-0.005256933

batch_norm.running_mean f4 [5]
0	0xbb604cbd	-0.0034225427
1	0xbc523fa1	-0.012832553
2	0x3b9f7a1c	0.0048668515
3	0xbd34aed7	-0.044112053
4	0x3d30eec0	0.04319644

batch_norm.running_var f4 [5]
0	0x3f777d3f	0.96675485
1	0x3f8671da	1.0503495
2	0x3f97d994	1.1863275
3	0x3f768fd7	0.9631323
4	0x3f80d7ec	1.0065894

linear.weight f4 [1, 5]
0	0x3f23bb41	0.639576
1	0x3e56b44d	0.20967217
2	0xbfb2685d	-1.3938099
3	0x3e3ce8a6	0.18448123
4	0x3e54c2ba	0.20777407
