notebooks/trained_model.pt (torch, 3270 bytes, 5 tensors)

batch_norm.weight f4 [5]
00000000: fe5f 783f 5d8e 7a3f a020 783f 896d 793f
00000010: 6fe8 7a3f
0.9702147 0.9787348 0.9692478 0.9743276 0.98010916

batch_norm.bias f4 [5]
00000000: b021 3f3c b990 503c 490a 47bc 738f 3f3c
00000010: a8e3 6f3c
0.011665747 0.012729817 -0.012148448 0.011691916 0.01464168

batch_norm.running_mean f4 [5]
00000000: 8658 11bc cc08 3bbd f587 45bc 2672 c0bc
00000010: 6ac6 413d
-0.008871203 -0.045662686 -0.01205634 -0.02349193 0.047308363

batch_norm.running_var f4 [5]
00000000: 9328 6b3f 5ce2 843f 657f 913f b7f0 7a3f
00000010: 68b8 7e3f
0.91858786 1.0381579 1.1367003 0.9802355 0.9950013

linear.weight f4 [1, 5]
00000000: a93e 233f 2983 543e 2550 b2bf 66a0 3b3e
00000010: 3229 4a3e
0.63767487 0.20753159 -1.3930708 0.18322906 0.19742277
