00_portfolio_real_data/lstm/trial_13_assets.pt (torch, 678484 bytes, 11 tensors)

lstm.weight_ih_l0 f4 [256, 6]
000000 8e 31 d8 3d de 88 f6 3d 99 fa f0 3d 07 8a de 3d
       0.10556327 0.12037824 0.11766548 0.108661704
000010 9f f5 d9 3e 1a 03 96 3e 06 db 3c 3e b2 0b 71 3e
       0.42570207 0.2929924 0.18442926 0.23539618
000020 58 f2 21 3e 84 ff 29 3e 3d 06 59 3e 04 d5 44 3e
       0.15815103 0.16601378 0.21193786 0.19221884
000030 ed a5 05 3e e0 7c 1b 3e 56 28 1f 3e 8d 20 65 3d
       0.13051577 0.15184355 0.1554273 0.055939246
000040 87 3c 90 3e bd bc 75 3e f6 ae 65 be ff 4b 4e bd
       0.2817118 0.23997779 -0.22430024 -0.050365444
000050 7e 96 8c be 8f 64 4b be 12 8e 75 3e 17 13 95 3e
       -0.27458566 -0.19862579 0.23979977 0.29116127
000060 4d 39 3f 3c e0 1c e0 3d 62 af 0a 3e 68 c4 9b 3a
       0.011671376 0.109430075 0.13543466 0.0011884095
000070 ca e2 0b 3e d0 6d 61 3c 4e ff 8b 3d 0e 24 ba 3c
       0.13660732 0.0137590915 0.06835805 0.02272227
000080 dd 4f 7c 3e 52 02 bd 3c a9 f0 27 3e dd 8a 65 3e
       0.2463984 0.023072395 0.16400398 0.22416253
000090 57 b3 3a 3d dd 3e c1 3d 3a 98 fc 3d c9 ce 50 3d
       0.045581188 0.09435818 0.123337224 0.050978456
0000a0 61 b9 46 3c fd 76 ed 3d 33 e1 78 3d 56 10 19 bd
       0.012129159 0.11594961 0.06076164 -0.037369095
0000b0 29 94 6c bd ff e5 f1 bd d3 29 31 3e fb fd 85 3d
       -0.057758484 -0.118114464 0.17301111 0.065425836
0000c0 d7 24 b7 3e 32 37 a2 3e 66 6d 52 3e c4 de 0e 3e
       0.35770294 0.31682736 0.20549545 0.13952166
0000d0 32 02 05 3d 3e 8f 5e 3d 04 8d 33 3e c8 fe 19 3e
       0.032472797 0.054335825 0.17534262 0.15038598
0000e0 cb f1 87 3c ec bf 2a 3e 0b 88 95 3e 64 f0 b9 3e
       0.016594788 0.16674775 0.29205355 0.36316216
0000f0 d6 24 b5 3c 79 de 0e 3e 59 bb 84 bd d9 94 35 3d
       0.022112291 0.13952054 -0.06481046 0.044331405
000100 77 6b e0 3d bd ee a1 3d 94 4b c9 3d c5 f7 07 3d
       0.10957997 0.07906864 0.098288685 0.033195276
000110 64 ae 79 3d c4 22 3a 3a e4 73 46 3c 04 06 42 3e
       0.060957327 0.00071005174 0.012112591 0.18947607
000120 10 e5 fe 3b d1 23 fa 3c 14 3c 11 be c4 ab c3 bd
       0.007778771 0.030534657 -0.14183074 -0.09554246
000130 da 64 b1 3d 04 9f 0b 3d 96 a7 9d bc a2 75 4c 3c
       0.08661814 0.034087196 -0.01924495 0.012479218
000140 d6 06 f6 bb b0 84 4b 3d 8d 3f eb 3d 70 eb a2 3d
       -0.007508139 0.049687088 0.11486731 0.079550624
000150 ee 2a 00 3d 34 70 6a 3d ee b2 bd bd 3d a9 2b bc
       0.03129094 0.05723591 -0.09262644 -0.010477361
000160 8a 44 bd 3d 56 48 f7 3d 48 6e 4d 3d 2d c4 c0 bd
       0.092415884 0.12074344 0.050154 -0.094124176
000170 6c 67 6b 3c 5a a1 f3 3c a7 ef a5 3e 98 b9 8c 3e
       0.014367919 0.029740024 0.32409403 0.27485347
000180 35 d7 0c bd ed c7 5e bc f8 6b 50 be c1 0b 8a bc
       -0.034384925 -0.013597471 -0.20353687 -0.016851308
000190 36 af 53 3d 12 d0 aa 3d d0 66 e8 bd 49 eb 1f be
       0.051680766 0.083404675 -0.11347735 -0.15617098
0001a0 5b b1 38 be 8d 87 24 bd 22 53 80 3e 84 52 5d 3e
       -0.18036406 -0.040168334 0.25063425 0.21613508
0001b0 9f a1 45 3e ea f6 a8 3e 16 0d 8a 3e 02 60 43 3e
       0.19299935 0.3300088 0.2696311 0.19079593
0001c0 03 b9 6e 3e 5f 0a b2 3e 13 ac 73 3e 97 95 05 3e
       0.23312764 0.34773538 0.2379611 0.13045345
0001d0 20 2c 59 3e da 7d 93 3e 2b 7d 44 3e aa 79 4c 3d
       0.21208239 0.28806955 0.19188373 0.049920715
0001e0 13 98 38 3d 8b 49 e0 3d 20 ca 15 3e 3f 8f 65 bd
       0.045066904 0.10951527 0.14627886 -0.056044813
0001f0 27 bb 98 3e a0 39 6b 3e bd 27 08 bd 72 dc b4 bd
       0.29830286 0.22971201 -0.033241022 -0.08831109
000200 c0 65 00 3d d1 55 14 3d ac a8 a4 3d 21 49 a6 3d
       0.031347036 0.036214653 0.08039984 0.08119417
000210 a1 38 01 3d 5a 0c d4 3d c9 80 dc ba 07 37 62 bd
       0.031548146 0.103539184 -0.0016823049 -0.05522826
000220 2c e9 be 3d ee c5 e9 3d 02 02 4d be 8b f0 56 be
       0.09321818 0.11414705 -0.20020297 -0.20990197
000230 5e 8a bf bb 57 cb 31 be 5e 2a 51 3e b7 28 34 3c
       -0.005845352 -0.17362724 0.20426318 0.010996035
000240 bc 11 9d bd a6 ac 0d 3d 05 f6 6c 3d 1d 04 0c 3e
       -0.07669398 0.03458848 0.05785181 0.13673444
000250 b7 0d 9a 3e 08 0b c1 3e 1f c3 63 bd ec ef 5a 3d
       0.3008859 0.3770373 -0.055606004 0.053451464
000260 88 09 2b bd a1 64 28 3e dc ac ca 3e cd be eb 3e
       -0.041757137 0.16444637 0.39585006 0.46044007
000270 91 db b5 3d 6b cc c2 bd e1 1d c8 3a bb 78 8f bd
       0.088797696 -0.09511646 0.0015267694 -0.070054494
000280 3d 8e d2 3d da 81 12 3e df 03 ee bd fd a8 0c be
       0.10281036 0.14307347 -0.11621832 -0.13736339
000290 e0 7f dc 3c 53 96 1d be 7f af 4b 3e 28 49 80 3e
       0.026916444 -0.15389375 0.19891165 0.25055814
0002a0 5b c1 c1 3d 09 1c cf 3c 15 bd f0 3c df ee 92 3d
       0.09460708 0.025281923 0.029387036 0.07174467
0002b0 39 d0 b9 3e e4 8b a5 3e f6 39 31 3c a9 90 1d be
       0.36291674 0.3233329 0.010817042 -0.15387215
0002c0 4c 87 88 3c a1 0e 53 be be 5d b7 3d 6a a5 2b 3e
       0.016666077 -0.20611049 0.08953427 0.16762319
0002d0 07 84 8b 3e bd d9 60 3e 22 b6 84 3e aa 26 76 3e
       0.27249166 0.2195806 0.25920206 0.24038187
0002e0 d0 f5 07 3e a6 30 30 39 5f af e1 3d 00 de 2a 3c
       0.13277364 0.00016802791 0.110197775 0.0104289055
0002f0 d7 67 af 3d 82 78 aa 3d b1 05 65 3e 86 22 94 3d
       0.08564728 0.08323766 0.22365452 0.07233147
000300 1f ef cf 3c 4c 25 23 3e fc 15 02 3e 71 2f 18 3e
       0.025382577 0.15932196 0.12703699 0.14861847
000310 e6 9c e4 3d e9 1f 4a 3e 88 af d4 3d 24 2c 32 3e
       0.111627385 0.19738735 0.103850424 0.17399651
000320 4e f3 2a 3e 63 b5 8b 3e 21 c1 0c 3e 66 22 34 3d
       0.16694376 0.27286825 0.13745548 0.043978117
000330 ed a3 2c 3c 64 a8 48 be 8d 1a d5 bb a0 17 25 bd
       0.01053713 -0.19595486 -0.0065034092 -0.040305734
000340 6c 1d a4 3e a1 11 d1 3d f2 12 0a bd 4f 3c c1 bb
       0.32053697 0.102084406 -0.033709474 -0.005897082
000350 ef cd b9 3c 58 c3 b9 bd 62 02 d4 3d 5c 52 af 3e
       0.022681205 -0.09070462 0.10352017 0.34242523
000360 c3 11 a7 bd a5 d0 8b bd 6d 49 b2 bd e6 16 fe 3d
       -0.08157685 -0.06826905 -0.08705411 0.12406711
000370 26 43 57 3d 3b 7d 74 3d a6 42 8c 3e 2f fe a0 3e
       0.052554272 0.05968974 0.273946 0.31443927
000380 0f 17 e2 3e 22 25 c5 3e fd e3 a6 3d 02 ef 7a 3d
       0.44158217 0.38504893 0.08148954 0.06126309
000390 92 b3 97 3e ee 13 85 3e cd 1e ef 3d ab 46 9c 3e
       0.2962919 0.25991768 0.11675797 0.30522665
0003a0 64 2c 84 3e 42 7c d6 3d a3 0f 85 bc 5a 24 5b 3d
       0.25815117 0.10472919 -0.016242808 0.053501464
0003b0 4d 46 09 3d 06 10 fd 3d 65 43 8b 3e 20 c5 96 3e
       0.03351431 0.12356572 0.27199855 0.2944727
0003c0 cf 5e 90 bd 5e 28 11 be 0a 1d 3e bd b6 9f da bd
       -0.07049333 -0.14175555 -0.046414413 -0.10674994
0003d0 4f 8f d3 3d 71 8c bc 3d df 98 61 3c 1d 4d 03 3e
       0.10330068 0.092064746 0.013769357 0.12822385
0003e0 e8 6a cd 3d 05 f3 fc bc 74 30 15 3e d6 74 fb 3d
       0.100301564 -0.0308776 0.14569265 0.12278144
0003f0 a6 cc e6 b9 87 48 06 3e 9d c1 a2 bc 86 c0 82 bd
       -0.00044021494 0.13113604 -0.019867713 -0.06384377

lstm.weight_hh_l0 f4 [256, 64]
000000 46 a6 04 3e 55 4b 3f be 7a e8 9c 3d 11 ec ab bc
       0.12954053 -0.1868108 0.07661529 -0.020986589
000010 08 c4 dc 3c 66 e0 bf 3c 00 2e 58 3e b1 5a 86 bc
       0.026948944 0.023422431 0.21111298 -0.016400667
000020 8b 68 46 3d fd 5b 7c bd b2 50 6e bd 06 a2 31 bd
       0.048439544 -0.061611164 -0.058182426 -0.04336741
000030 72 8e 43 3e fb f1 ad bd 88 9b 6e be 82 02 3e be
       0.19097307 -0.0849342 -0.23301518 -0.18555644
000040 3d b6 56 be c5 26 33 be d1 c8 7f bd b0 6e a4 3d
       -0.20967956 -0.17495258 -0.062447373 0.080289245
000050 12 9d 88 bd d6 01 15 be ee 07 33 3e a0 65 3b be
       -0.06670584 -0.14551482 0.17483494 -0.18300486
000060 f5 e7 12 3e a9 71 9c 3c 97 08 a6 3d 68 a8 be bc
       0.14346297 0.019097166 0.08107107 -0.023273662
000070 42 ff 45 bd bb d1 8a bd 47 da 46 bc 48 ad 1c 3e
       -0.048339136 -0.06778284 -0.012137002 0.15300477
000080 f8 13 5e 3c e8 ef 1b be 2b 66 01 bc 43 57 a6 3b
       0.013554566 -0.15228236 -0.007897894 0.0050763204
000090 da 5e 08 3e 5a 3a 19 bd 03 ad 17 be a9 62 f6 3d
       0.13317433 -0.037409164 -0.14812092 0.12030537
0000a0 04 bd 3b bc 50 d7 2c be 4f dc 73 3c cd 27 f8 bc
       -0.011458639 -0.1687901 0.014884069 -0.030292416
0000b0 fa e4 6c bd 34 f9 a9 bc 77 83 16 bd fb 57 f3 3c
       -0.057835557 -0.020748712 -0.03674647 0.029705038
0000c0 8e 6a a7 bd 7b ed 8e bd a8 bc 52 39 54 ac 7c bd
       -0.081746206 -0.069788896 0.0002009744 -0.061687782
0000d0 bc 77 81 3d 3c b1 7f bd 67 79 37 3e e7 86 dc bd
       0.06321666 -0.062424883 0.17917405 -0.10767918
0000e0 4e b8 9a bd ab 1c 2b 3c c8 83 b9 bd 3b af c5 bd
       -0.075546846 0.010443847 -0.090583384 -0.09652563
0000f0 d4 c3 33 bd 9d 85 40 bd 72 ad 20 3d 51 d5 ff 3c
       -0.043887928 -0.047002424 0.03922791 0.031229647
000100 c1 4c bc 3c 80 03 a5 3d d6 96 d6 3d 85 9e 1c bd
       0.022985818 0.08057308 0.104779884 -0.038237114
000110 70 4c a7 bd 1a 15 3d bd c4 ba 91 bd 4f bf f6 bb
       -0.08168876 -0.046162702 -0.07115701 -0.00753013
000120 f5 25 86 bd f5 2c 48 3d a0 56 3d be be f1 6f 3d
       -0.065502085 0.048871 -0.18490076 0.058580153
000130 aa f2 85 bc 9b cc 0e 3e 3a a9 59 3d 04 f7 92 bd
       -0.016351063 0.13945238 0.053139903 -0.07176021
000140 f3 1b f9 bd c9 09 3b 3c a7 77 0a bd 76 63 1c bd
       -0.12163534 0.011415907 -0.033805516 -0.03818079
000150 a9 11 04 3e 7f bb 01 be ec 99 46 3c f3 29 1c bd
       0.12897362 -0.1266918 0.012121659 -0.038125943
000160 33 10 94 bd 68 3d ec 3d b2 8d 02 3d c6 f1 33 3d
       -0.07229652 0.1153515 0.031873412 0.043931745
000170 b5 6d e1 bc 19 b6 87 bd 3a c7 ff 3d 08 5e 09 bd
       -0.027518133 -0.06626529 0.12489171 -0.03353694
000180 c5 b7 34 be ea ff fe 3c 4f fb ce 3d 34 55 df bc
       -0.17648228 0.031127889 0.10106527 -0.027262308
000190 37 ed ed 3d 4c 98 a9 3d 8f 39 8b bd 50 9d f1 3c
       0.11617511 0.082810014 -0.06798088 0.029493958
0001a0 3a 52 e4 3c b2 55 19 be 17 b0 cf bc 5a d4 9d 3d
       0.02787124 -0.14974096 -0.02535252 0.077065185
0001b0 81 52 db 3b 94 f8 08 be 5e 5c 04 bd b2 a2 28 3d
       0.006693185 -0.13376075 -0.03231465 0.041170783
0001c0 3d 21 81 3e b6 c9 cb bd 1c 9d 07 bd 61 25 d4 bd
       0.2522067 -0.09950583 -0.033108816 -0.10358692
0001d0 d6 d6 15 3e 4c f8 f1 3d bc db 24 be 02 04 42 3d
       0.14632735 0.11814937 -0.16099447 0.047367103
0001e0 54 e3 3e be 45 1d be 3d f4 57 a4 bd 55 33 91 bc
       -0.18641406 0.092829265 -0.08024588 -0.017724672
0001f0 73 2a db 3d 2f 96 12 3e e2 da 24 3e af 1d f4 bc
       0.10701456 0.14315103 0.16099122 -0.02979931
000200 05 8d 16 3b 68 ba 78 3d ec 46 60 3e 6d 4c 27 3e
       0.0022972238 0.060724646 0.21902055 0.16337748
000210 d2 10 0f be c6 c0 a1 3d 10 59 1d 3d 6e 17 05 be
       -0.1397126 0.07898097 0.038415015 -0.12997219
000220 45 64 1d be 0c e6 0c 3d a7 29 ce bd 55 18 20 be
       -0.15370281 0.034399077 -0.10066538 -0.15634282
000230 88 41 55 3e b6 59 fe 3c 36 98 d4 bd 53 5b 2a bd
       0.2082578 0.031048637 -0.103805944 -0.041591
000240 63 0f 64 bc f0 68 89 bd 98 b5 b6 bd a6 d3 3f be
       -0.013919684 -0.06709468 -0.08921355 -0.18733081
000250 64 85 2e 3e 97 71 93 bd 3f e1 da bd 55 b8 2e 3e
       0.17043072 -0.071994 -0.106874935 0.17062505
000260 f7 ac 9c 3d 9d 28 06 be f1 4b 82 3d f8 06 9a 3d
       0.07650178 -0.1310143 0.06362141 0.075208604
000270 59 8d 44 bd 6f bc 6d 3d 59 33 c5 bd b8 b5 76 3d
       -0.047986362 0.058041032 -0.096289344 0.060231894
000280 b6 19 14 be 03 67 02 bd f6 a9 9f 3d b4 ec b1 bc
       -0.14462933 -0.03183652 0.07796089 -0.021719314
000290 b9 ff 55 3e 8d 8c 89 bd a2 6e 01 be 70 20 30 3e
       0.20898332 -0.06716261 -0.1263986 0.17199874
0002a0 11 7c 1f be e0 3d 8d bd ec 11 fe 3c 3c 43 0e bd
       -0.15574671 -0.06896567 0.031014405 -0.03473209
0002b0 f5 b1 42 3d 58 f4 2e bd de 4e 15 bd 42 1f 6c bd
       0.047532994 -0.042713493 -0.036452167 -0.057646997
0002c0 f2 f9 03 bc 4b d7 13 be 95 1c 43 3d e6 01 99 be
       -0.008055197 -0.14437596 0.04763468 -0.2988426
0002d0 b7 43 97 3d 47 b4 aa 3d 14 da 0a bc 13 21 8c 3d
       0.073859625 0.083351664 -0.008474845 0.06842246
0002e0 82 35 db bc fd 27 fb bd aa ef 82 bd ba 83 fb bc
       -0.026758913 -0.122634865 -0.063933685 -0.03070246
0002f0 7a 83 f3 bd 69 16 ac 3b 74 dc 49 be 73 0d d2 bb
       -0.118903115 0.005251695 -0.19713002 -0.0064102947
000300 bc 87 fd bd 29 2d db 3d b9 51 b6 3e d0 2a 6c be
       -0.12379405 0.10701973 0.35609224 -0.23063207
000310 20 13 07 be b5 4c 2b 3e 02 3f c3 3c 59 ef b3 bd
       -0.1319089 0.1672848 0.023833755 -0.08785886
000320 a4 d8 9f 3d 9e 44 8b be 62 3d 02 bb b3 b3 2c bb
       0.07804993 -0.27200788 -0.0019873013 -0.0026352226
000330 56 ce 4a be b8 9b 9f 3e 25 82 1f bd 84 c0 63 3e
       -0.19805273 0.3117349 -0.038942475 0.22241408
000340 aa 61 8f bd d1 3a 48 3e ef 9f 9b bd 40 3b 78 3e
       -0.0700105 0.19553687 -0.07598864 0.24241352
000350 37 1b 31 bd 62 7d a5 3c e7 a4 67 3d 36 9a 73 be
       -0.043238845 0.020201389 0.056553748 -0.23789296
000360 0c 07 a3 bd 08 ab d2 3c 4b 76 14 be 11 51 83 3e
       -0.079603285 0.02571632 -0.1449825 0.25647786
000370 8c 58 fa 3c 6f 8a 8b be 07 5d 05 3e 81 26 5d 3e
       0.0305598 -0.27254054 0.13023768 0.2159672
000380 7f 56 81 3e c7 2d 59 3e f1 38 30 3a c1 fc ee bd
       0.25261304 0.21208869 0.0006722352 -0.11669303
000390 28 d4 06 3e cd b1 20 be 47 6f 65 3d 92 1e 13 be
       0.13166869 -0.15692826 0.056014325 -0.1436713
0003a0 c1 6c fe bd 6b ed cd 3d cd 2b f3 bc 7b f2 b2 bd
       -0.12423087 0.100550495 -0.029683972 -0.08737656
0003b0 43 fc c4 3d 24 ae 6c 3e 10 c7 1b 3e 2f 08 03 3e
       0.096184276 0.23113304 0.15212655 0.1279609
0003c0 d8 f9 06 3e 7e dd 0a be 8f a9 34 bd ce 38 fc 3d
       0.13181245 -0.13561055 -0.044107016 0.12315522
0003d0 8b b3 54 bd cc ca 51 3d 8d d8 77 be f5 cc 8f 3e
       -0.051929038 0.051218793 -0.24203701 0.28086057
0003e0 d0 81 7f be 6c 74 6b be 4e 4e 4b 3e ce 67 0d 3e
       -0.24951863 -0.2299363 0.1985409 0.1380913
0003f0 3f fe fa bb 04 ae f5 3b 97 45 48 3e c1 9c f4 bd
       -0.007659703 0.007497551 0.19557796 -0.11943961

lstm.bias_ih_l0 f4 [256]
000000 59 14 a7 be 22 48 af be d4 17 a8 be 2a 27 c3 be
       -0.32632712 -0.3423472 -0.3283068 -0.38115817
000010 ee ff 77 be 8b ad 30 be 6d 4d af be 14 65 83 bd
       -0.24218723 -0.17253701 -0.3423876 -0.064157635
000020 7a 55 38 be 86 19 8a be 50 46 3b be 49 96 34 bd
       -0.18001357 -0.26972598 -0.18288541 -0.044088636
000030 3b d4 0f 3d 4f e9 19 be 6e 52 e0 bc cb a5 b4 bd
       0.035114508 -0.15030406 -0.027383056 -0.08820685
000040 7a 27 5a 3d ff 1d 23 be 23 fb 74 be 43 3a c2 bd
       0.053260304 -0.15929411 -0.23923926 -0.09483769
000050 dd c6 40 be 99 92 cf bd 20 ea 39 be 05 23 4c be
       -0.1882586 -0.10135383 -0.18155718 -0.19935234
000060 87 9e 74 be fc 08 e5 be c1 cd 7d be e4 2f 9e be
       -0.23888598 -0.44733417 -0.2478552 -0.30895913
000070 93 c0 41 be aa a9 2a bd da eb ac bd 78 7e 7d be
       -0.18921117 -0.04166571 -0.084434226 -0.24755275
000080 44 55 65 be 81 3b 95 be 8e c3 76 be 5f 3a 0e be
       -0.22395808 -0.2914696 -0.24098036 -0.13889454
000090 e2 e0 36 be cf 61 79 be 40 17 a8 be 36 4b f0 bd
       -0.17859223 -0.24353717 -0.32830238 -0.11733095
0000a0 e5 ce 41 be 67 95 9e be d3 3c 62 be 28 10 39 be
       -0.1892658 -0.3097336 -0.22093515 -0.1807257
0000b0 ce 2a 7b be d9 96 8b be 18 54 9b be 02 a4 12 be
       -0.24528047 -0.27263525 -0.30337596 -0.14320377
0000c0 e3 20 98 be 56 f4 80 be dc 89 a1 bc 2a 07 7c 3d
       -0.2971259 -0.25186414 -0.019719057 0.06153027
0000d0 27 7d 17 3c 23 98 6a be 48 be f6 bc 81 78 49 be
       0.009246147 -0.22909598 -0.03012003 -0.19674875
0000e0 1b 75 39 be c3 42 6e be 96 f3 99 be 51 c0 7c be
       -0.18111078 -0.23267655 -0.30068654 -0.24682738
0000f0 bf 43 c9 be b9 ed ab be cb 02 b3 bd 9f 0e 17 be
       -0.393095 -0.33579805 -0.08740767 -0.14751671
000100 fb ac 03 bf 6b f6 de be d8 aa 10 be a4 5b 70 be
       -0.5143582 -0.43547377 -0.14127672 -0.23472458
000110 21 9f 53 be f5 bb a2 be 5d a8 4c bd 24 e0 54 be
       -0.20666172 -0.31784025 -0.04996525 -0.20788628
000120 49 4e 42 be 01 e5 8b be ce 71 91 be b2 d0 79 be
       -0.18975176 -0.27323154 -0.2840714 -0.24396017
000130 7f 97 32 be 88 38 28 be 84 29 4f be 9b bc 20 be
       -0.17440604 -0.16427815 -0.2023068 -0.15696947
000140 f5 7c ba 3d 30 be cb be 5b 14 4b be 76 12 1b 3c
       0.09105865 -0.3979354 -0.19831984 0.009464851
000150 74 b7 26 be 8e 4c 9e be e4 f3 82 be 96 8c 91 be
       -0.1628092 -0.30917782 -0.255767 -0.2842757
000160 b2 d6 78 be 80 e0 a7 be 7e 2f 86 be 13 de 36 be
       -0.2430065 -0.32788467 -0.2620811 -0.17858152
000170 b6 84 c1 be 36 9e 90 be 92 8b 74 bc 76 9d a8 be
       -0.37796563 -0.28245705 -0.014925854 -0.32932633
000180 1d de 2b bd d0 9f 8f be 13 52 a8 be ef a0 5e be
       -0.04195987 -0.28051615 -0.32875118 -0.21741079
000190 9b 30 03 be dc d4 c0 bc 08 51 42 be 8f 84 ed bd
       -0.1281151 -0.023539 -0.18976223 -0.11597549
0001a0 84 69 9d bd e9 d2 da be c3 84 80 be 03 bf 47 be
       -0.07686141 -0.42739037 -0.2510129 -0.19506459
0001b0 f0 8c 8c be 06 1a 36 be d4 3f 93 be ba c3 ef bd
       -0.27451277 -0.17783365 -0.28759634 -0.11707254
0001c0 d5 21 a9 be f1 d0 52 be 7a b6 24 be 76 d8 9e 3a
       -0.33033624 -0.20587517 -0.16085234 0.0012118954
0001d0 95 55 8c be 14 b8 56 bd 2a 1e 38 be 67 e3 b2 be
       -0.27409044 -0.052421644 -0.17980257 -0.3493912
0001e0 bd bf 1b be 7e 02 58 be 8e c3 ac be 3a 08 dc be
       -0.15209861 -0.210947 -0.33742946 -0.42975026
0001f0 30 46 ee be 01 03 c0 be 91 27 c0 bd ed f4 82 be
       -0.46537924 -0.37502292 -0.09382547 -0.2557749
000200 5a 90 80 bb a6 7c 05 be 47 41 4e be 47 a3 e0 3d
       -0.003923458 -0.13035831 -0.20142089 0.10968643
000210 d0 ab bc 3c 0d ee bf bd 61 2d 9e bd 4b af 12 3c
       0.023031145 -0.093715765 -0.07723499 0.008952926
000220 db db 34 bd be cf 2d 3e f9 d4 cb 3d ba 97 11 bc
       -0.044154983 0.16973779 0.09952731 -0.008886272
000230 3e 5f 5f be c2 61 c7 bd b3 1b d1 bc 05 5d db 3d
       -0.21813676 -0.09735443 -0.025525903 0.107111014
000240 cb d7 c0 3d 74 b2 2a 3e 4a 1b ef bd d0 e1 a6 bd
       0.09416159 0.16669637 -0.11675127 -0.08148539
000250 9d 22 15 3c 67 b8 9d 3d 7b 64 87 bd be 4b 84 3d
       0.009102491 0.077011876 -0.06610962 0.06459759
000260 9f 8c 6d bd 4f d2 cf bd 98 e3 f7 bd 67 10 cd b9
       -0.057995435 -0.10147535 -0.12103957 -0.00039112868
000270 76 54 32 be f4 60 86 3e 55 72 24 bc 45 c8 ce 3d
       -0.17415032 0.26245844 -0.0100370245 0.10096792
000280 8f d1 71 3c 07 47 ae bb a9 89 1c 3d b9 3e da 3d
       0.014759435 -0.0053185257 0.03821722 0.10656495
000290 f2 74 09 3c 8b 3e e7 3d 6b a3 14 bc e4 56 ff bd
       0.008389698 0.11291226 -0.009072165 -0.12467745
0002a0 80 91 9f bd 79 0d 5f be aa d6 0e 3d 85 e9 8b 3d
       -0.07791424 -0.21782483 0.03487269 0.0683165
0002b0 f9 d9 a8 bc 25 c5 10 3e 41 c0 9f bd 7e 13 11 be
       -0.02061175 0.14137705 -0.078003414 -0.14167592
0002c0 6f 28 05 be 38 1c c7 3d a4 aa 07 3e 05 51 0b 3e
       -0.13003705 0.09722179 0.13248688 0.13605125
0002d0 00 44 0f be 20 d1 17 be 93 88 13 3e 0e eb 78 bd
       -0.13990784 -0.14825869 0.14407568 -0.06077104
0002e0 a2 65 d3 3c dc c7 58 3d 5d 41 8e bd ef 52 eb bc
       0.025805298 0.052924976 -0.06946061 -0.02872607
0002f0 9c 39 a2 ba 77 85 01 bd 71 f3 01 be f1 18 9e 3d
       -0.0012376788 -0.031621423 -0.12690522 0.07719601
000300 7d af 09 bf 34 e9 74 bd 80 98 72 be 66 41 54 be
       -0.537834 -0.059792712 -0.23690987 -0.20728073
000310 8c 06 91 be 74 11 5e be 9f 68 b4 be 8a 70 56 bd
       -0.28325307 -0.21686345 -0.3523607 -0.05235342
000320 60 03 36 bd 65 0e 97 be 99 a0 ff 3d 9b ff 85 bc
       -0.044436812 -0.2950317 0.124818034 -0.016357234
000330 f9 94 38 bd 5b 4d 07 be 91 88 06 be fe c8 29 bc
       -0.045063946 -0.13213103 -0.13138033 -0.010362862
000340 fe e9 78 bd ef 95 c7 be c5 85 c0 be f4 e5 35 be
       -0.060770027 -0.38981578 -0.37602058 -0.17763501
000350 d9 a4 14 be 15 e4 90 be 60 80 24 be f2 6b 95 be
       -0.1451601 -0.28299013 -0.16064596 -0.29183918
000360 6b 76 35 be 65 0a 62 be ad 82 2b be 60 e8 83 be
       -0.17720954 -0.22074278 -0.16749068 -0.25763226
000370 0d a7 66 be a2 05 81 be 19 ee fd bc b1 c7 c9 bd
       -0.22524662 -0.2519961 -0.030997323 -0.09852541
000380 40 37 47 be 14 64 83 be ed f0 a5 be 05 5e a5 3c
       -0.1945467 -0.2566229 -0.32410374 0.020186434
000390 94 ac 9d bd 00 0c 16 bd 25 72 06 be 3d c0 33 bd
       -0.07698932 -0.036632538 -0.1312948 -0.043884505
0003a0 84 51 76 be 94 3a ba be 33 3c c2 bd b5 40 29 be
       -0.24054533 -0.36372817 -0.09484138 -0.1652859
0003b0 71 37 06 be f7 27 b0 be cf 6d 75 be e1 14 12 be
       -0.13107087 -0.3440549 -0.2396767 -0.14265777
0003c0 68 87 cc be 34 65 58 bc 39 62 9a bd 12 54 ec bd
       -0.39947057 -0.013207722 -0.07538266 -0.11539473
0003d0 60 e6 ed bd 50 a6 cf bd e4 34 5d be 55 a1 a9 be
       -0.11616206 -0.101391435 -0.21602207 -0.331309
0003e0 a0 81 10 bd 8d bb 39 be 69 8b 6f be d5 1d 66 be
       -0.03527987 -0.18137951 -0.23393025 -0.22472318
0003f0 f9 4d f4 be 47 79 f4 be 51 51 46 be 59 31 83 be
       -0.47715738 -0.47748777 -0.19366957 -0.25623587

lstm.bias_hh_l0 f4 [256]
000000 84 aa dc be 35 a6 b6 be de 4f e0 bd c9 d3 e6 be
       -0.43098843 -0.3567368 -0.109527335 -0.45083454
000010 15 73 ab be a0 ee 76 be 89 8e 27 be 7e 03 78 3d
       -0.33486238 -0.24114466 -0.16362967 0.060550205
000020 fd 4d 11 bd d6 d5 bc be 80 d1 4b be 42 2f a1 bc
       -0.035474766 -0.36881894 -0.19904137 -0.019675855
000030 bd 86 7b 3d c8 45 32 be d9 34 5b be b4 1b 78 be
       0.061407793 -0.17409432 -0.21406879 -0.24229318
000040 dc 04 d7 bd b6 f3 b3 be 94 57 84 be 44 1b 46 bd
       -0.10498974 -0.35146874 -0.25848067 -0.048365846
000050 04 f3 8d be cd 10 58 be 49 e8 81 be 15 d1 64 be
       -0.2772447 -0.21100159 -0.25372532 -0.22345383
000060 1b 2b 43 be b6 1b ca be ce 86 2a bd 34 df bb be
       -0.19059412 -0.39474267 -0.041632466 -0.36693728
000070 10 e3 61 be b2 c7 3f be 8c e1 e0 bd 36 48 e2 bd
       -0.22059274 -0.18728521 -0.1098052 -0.110489294
000080 1b 31 4f be 55 d5 bd be 7f e8 61 be 63 7d 2d be
       -0.20233576 -0.37076822 -0.22061346 -0.16942362
000090 72 86 89 bd 6c f9 35 be 2e ad a1 be 75 6a 26 be
       -0.067150965 -0.17770928 -0.31577438 -0.16251548
0000a0 04 32 2b be 1b e0 6c be 5c 52 13 be 14 09 d5 bd
       -0.16718298 -0.23132364 -0.14386886 -0.10402122
0000b0 0b aa 3f be 86 65 de bd 01 af 99 bd 03 0b 51 be
       -0.1871721 -0.10859208 -0.075040825 -0.20414357
0000c0 ac c9 c6 be 51 74 fc bd 70 51 2c be 32 7a d3 bd
       -0.38825738 -0.12326873 -0.16827941 -0.10326041
0000d0 8b cf 27 be c6 a1 84 be a6 ed 2e be e4 b7 5c be
       -0.16387765 -0.25904673 -0.17082843 -0.21554524
0000e0 66 39 2a be e0 a8 5b be 5d 43 d2 be e5 ea 62 be
       -0.16623458 -0.2145114 -0.4106702 -0.22159918
0000f0 9d ba d2 be b4 1e 7c be 65 72 97 bc 3f e3 14 be
       -0.41158 -0.24621087 -0.018487165 -0.14539813
000100 d3 44 e2 be 2c 8d d2 be 93 43 58 be e5 22 20 be
       -0.44193134 -0.4112333 -0.21119528 -0.15638311
000110 00 82 c4 be d7 b4 99 be 24 83 39 be fa 21 83 be
       -0.38380432 -0.30020782 -0.18116432 -0.2561186
000120 43 92 16 be c2 3a 64 be 65 ae 16 be 6f c5 2c be
       -0.14704232 -0.2228804 -0.14714964 -0.1687219
000130 bf 51 62 be f0 68 64 bd 53 02 5e be 85 c8 b2 bd
       -0.22101496 -0.05576414 -0.21680574 -0.08729652
000140 92 ef ff bd b9 41 a6 be 99 80 9d be ce 0f 2e be
       -0.12496866 -0.32472017 -0.30762175 -0.16998217
000150 db c7 d0 bd a9 26 ce bd 97 f9 36 be 17 6e 8f be
       -0.101943694 -0.100659676 -0.17868648 -0.2801368
000160 99 d1 c5 be 1b ca 03 bf 95 9a 75 bd 37 60 2a be
       -0.38636473 -0.51480263 -0.059961874 -0.16638266
000170 9e 80 96 be 5a b9 8c be 5b e0 19 be bf a1 a6 be
       -0.29395002 -0.27485162 -0.15026991 -0.32545277
000180 18 73 69 be 50 56 1d be 2a b0 94 be c5 7a 7a be
       -0.22797811 -0.15364957 -0.29040653 -0.24460895
000190 af b1 72 be 48 bd 1c 3d c2 60 59 be b6 4b 9d be
       -0.23700593 0.03826645 -0.21228316 -0.30721825
0001a0 64 af e4 bd 0a 1e bb be c6 88 e0 bc 8f f6 80 be
       -0.111662656 -0.36546355 -0.027408969 -0.2518811
0001b0 4c 4f 4a be 20 ea 4c be e8 45 cc be 29 04 b3 bd
       -0.19756812 -0.20011187 -0.39897084 -0.08741028
0001c0 35 e8 40 be 76 2b 90 be fe dc 06 be 18 be 78 bd
       -0.1883858 -0.28158158 -0.1317024 -0.060728163
0001d0 e3 49 84 be 97 09 35 be 14 aa 66 be 9b 9a 9f be
       -0.2583762 -0.1767944 -0.22525817 -0.31172642
0001e0 a4 97 84 be 0a 3f 57 be 7a 24 18 be 61 6a 9d be
       -0.25896943 -0.21020141 -0.14857665 -0.30745223
0001f0 7b 89 c8 be dc f4 c3 be 86 92 97 be b5 c5 a6 be
       -0.3916739 -0.3827275 -0.29603976 -0.32572713
000200 53 65 1d 3d 5a fc 47 bd 2f 3b 40 be 5b 6b a2 3d
       0.03842671 -0.048824646 -0.18772577 0.07930633
000210 d0 b2 b7 3d f7 8a 51 bc 25 e5 d9 bd 28 ef b6 3c
       0.08969653 -0.012789479 -0.10639409 0.022330835
000220 6a b5 9f bd d3 f5 2b 3d 0d 52 fd 3c 3f 1f e6 3c
       -0.07798274 0.041982483 0.030922914 0.028091071
000230 e4 2f 57 be a1 6b aa bd 39 9f cb bc 2e 82 0e 3d
       -0.21014363 -0.0832131 -0.024856197 0.034792118
000240 23 23 20 3e 21 df 3c 3e ae 8f a2 3d 51 7c 31 be
       0.15638404 0.18444492 0.07937561 -0.17332579
000250 57 36 ef bc df 92 90 3d e1 94 1e 3d 88 e5 31 3e
       -0.029200716 0.070592634 0.0387162 0.17372715
000260 7b 2f 22 3e 2c 2f 89 3d 20 58 32 be f4 3c 0e 3e
       0.15838425 0.066984504 -0.1741643 0.1389044
000270 36 66 b2 3c e7 10 3f 3e 3c fe 13 be 25 76 d3 bd
       0.021777254 0.18658791 -0.14452451 -0.10325269
000280 4f 6f 70 3b 1c e9 17 ba 3c 9a 76 3d 10 26 95 3d
       0.003668744 -0.0005794929 0.060205683 0.072826505
000290 73 25 d8 bd ad 35 37 3d 1f 49 8f bd 4b a4 f4 bd
       -0.10554018 0.044728924 -0.069963686 -0.11945399
0002a0 12 a2 84 bd 93 16 36 be e8 bb 9a bd 91 64 2c bd
       -0.06476225 -0.17782049 -0.075553715 -0.042088095
0002b0 9c 58 e8 bc fe 75 8e bd 71 c9 2e 3b f1 dc 65 bb
       -0.028362565 -0.06956099 0.0026670361 -0.0035074318
0002c0 a8 96 cb 3d 46 75 ed 3d 14 0d 59 3b 7e 1e eb 3d
       0.09940845 0.11594634 0.0033119367 0.11480425
0002d0 00 e2 6f 3b 75 ef d0 bd f0 1b 69 3d 53 89 f4 3b
       0.0036603212 -0.10201923 0.05691141 0.0074626594
0002e0 cf c7 d8 3c 1d ae bf 3c 25 b6 05 bc 23 5c 84 3d
       0.026462464 0.023398453 -0.008161102 0.06462886
0002f0 f2 14 89 3d 06 5c da 3d be 4a 9a 3d 2c 00 e1 3d
       0.06693448 0.10662083 0.07533787 0.10986361
000300 89 10 ef be 14 8c d1 bd 19 2e 09 be 1a b0 64 be
       -0.46692303 -0.10231796 -0.13396491 -0.22332802
000310 62 f5 90 be 23 b2 da be b9 1c c0 be 5a 3d 02 3d
       -0.28312212 -0.42714033 -0.37521914 0.03179679
000320 70 d1 3d be e0 f7 8d be 9e 25 7f 3b 26 1a 80 bd
       -0.18536925 -0.27728176 0.0038932334 -0.062549874
000330 38 92 ed 3d c6 be 87 be 5e 28 83 bd 4e f6 13 be
       0.11600155 -0.26512736 -0.06404184 -0.14449427
000340 dd 5d 24 be 07 24 a8 be 77 99 b8 be cc 97 23 be
       -0.16051431 -0.32839987 -0.36054584 -0.15975875
000350 c9 7b a4 bd 7b 28 d6 bd 58 a1 9c be 27 5f 89 bd
       -0.08031423 -0.1045694 -0.30591846 -0.06707602
000360 ce 23 d9 bd d1 dd 77 be e9 23 91 bd fe fc 2d be
       -0.10602532 -0.2420571 -0.070869274 -0.1699104
000370 bd ac 6e be 39 3b ff bd f3 61 01 be c3 32 2c be
       -0.23308082 -0.12462468 -0.12635021 -0.16816239
000380 ee 2a 5a be 0f d9 3c be d0 ce 87 be d0 9d 08 be
       -0.21305439 -0.18442176 -0.26524973 -0.1334145
000390 85 33 22 be ed db 8a bc fb 8e b2 be 65 dc 61 be
       -0.15839966 -0.016950572 -0.3487471 -0.2205673
0003a0 3d 23 97 be 48 5c 9b be e1 e7 5d bd e7 a5 4d be
       -0.29519072 -0.30343843 -0.054176215 -0.20082818
0003b0 5c 2d c1 bd 12 0a 4b be b2 0b a3 be 2b d3 b1 bc
       -0.0943248 -0.1982806 -0.3184486 -0.021707138
0003c0 f3 c1 3f be 1d 0f 95 bd 7d 72 7d be d7 71 2f be
       -0.1872633 -0.07278273 -0.24750705 -0.1713327
0003d0 23 f5 ea bd b6 35 29 be 78 2b d9 bd 0b 8d 55 be
       -0.11472537 -0.16524395 -0.10603994 -0.20854585
0003e0 b0 6f 7a bd 0b 51 9f be 93 97 63 be c2 7a 4a be
       -0.06114167 -0.31116518 -0.2222579 -0.19773391
0003f0 3e bc ff be 3b ca 76 be 40 a9 be bd 35 27 d1 bd
       -0.49948305 -0.24100582 -0.093096256 -0.10212556

fc_layers.0.weight f4 [64]
000000 1e d4 10 3f 88 46 1a 3f a8 18 2e 3f 40 72 c0 3e
       0.56573665 0.6026387 0.6800637 0.37587166
000010 b4 09 2b 3f f3 49 44 3f 04 b4 19 3f de 44 4a 3f
       0.6681168 0.7667534 0.6004031 0.79011333
000020 02 45 4c 3f 41 b5 12 3f 8d 97 35 3f d4 89 32 3f
       0.797928 0.5730782 0.70934373 0.6974156
000030 d0 a9 20 3f e4 7d 36 3f ef f8 0c 3f 15 4d 2c 3f
       0.62759113 0.71285844 0.5506734 0.6730512
000040 ea fb 3c 3f 51 56 42 3f 95 be f0 3e 44 96 47 3f
       0.7382189 0.7591296 0.47020403 0.7796366
000050 bc ff 2b 3f df a7 2c 3f f1 ec 30 3f 3d d6 37 3f
       0.67187095 0.6744365 0.69111544 0.71811277
000060 a0 80 27 3f ae 08 d7 3e 4f b2 30 3f cc 17 3d 3f
       0.6543064 0.4199881 0.6902208 0.73864436
000070 21 7c 24 3f fa 7b 32 3f 32 cc 14 3f 88 36 1a 3f
       0.64251906 0.69720423 0.5812408 0.6023946
000080 a4 6f 34 3f 69 42 34 3f b2 1e 2f 3f 1e 21 2b 3f
       0.7048285 0.70413834 0.6840621 0.6684741
000090 70 c1 33 3f 8b 23 18 3f 14 f7 36 3f da 9c 26 3f
       0.7021704 0.59429234 0.7147076 0.65083086
0000a0 30 f4 1f 3f c3 8f 1d 3f 4a bb 39 3f ca c5 2b 3f
       0.62481976 0.6154749 0.72551405 0.6709868
0000b0 16 d3 36 3f b0 7c 2b 3f 98 31 30 3f 05 af 2d 3f
       0.7141584 0.66987133 0.68825674 0.67845184
0000c0 17 96 41 3f fb 93 35 3f ee 48 30 3f ea db 03 3f
       0.75619644 0.70928925 0.6886128 0.5150744
0000d0 b3 6f 42 3f 09 e7 18 3f f3 e8 5a 3f 85 e7 27 3f
       0.7595169 0.5972753 0.855117 0.65587646
0000e0 76 98 25 3f a3 cc 2b 3f a8 29 36 3f 3f b0 61 3f
       0.6468576 0.67109126 0.7115731 0.88159555
0000f0 7b e7 1c 3f be 5b c2 3e 51 8c 31 3f 0c e7 14 3f
       0.6129071 0.3796062 0.6935473 0.5816505

fc_layers.0.bias f4 [64]
000000 1b 19 62 3e 2e 52 b7 bd 0b 7f 18 bf 7d 5b 2e bf
       0.2207989 -0.089512214 -0.5956885 -0.6810835
000010 73 08 d5 3e 1d 96 8d bf 39 20 e5 3e 65 a3 1f bf
       0.4160801 -1.1061436 0.44751146 -0.62358695
000020 e7 8f 36 bf d1 31 17 3e d7 74 b2 3d d8 16 07 be
       -0.7131333 0.14765097 0.08713692 -0.13192308
000030 5b 77 b1 bd 9a 0e 05 3a 66 9c 33 3d 7e b6 de be
       -0.086653434 0.0005075723 0.043850325 -0.43498605
000040 04 b9 a8 bd b7 b0 94 3e ee 12 a1 be 39 e8 14 bf
       -0.08238414 0.29041073 -0.31459755 -0.58166844
000050 ba 85 cf be e1 25 72 3c 69 2d a2 3c 38 6e 54 be
       -0.40531713 0.014779539 0.019797044 -0.2074517
000060 04 98 d1 3e f3 f3 4b 3e b8 aa 88 be 2e 2e 46 3f
       0.4093629 0.19917278 -0.26692748 0.77414215
000070 e6 4a fc 3d 7b 5a b1 bf 4e 41 15 3e a6 93 cf be
       0.12318973 -1.3855737 0.14575693 -0.40542334
000080 26 31 81 be c0 f5 79 be 7c 65 40 3e ff 61 17 bf
       -0.2523281 -0.24410152 0.18788713 -0.59133905
000090 ff 4e 78 3e 5a 95 1e bc 30 66 70 bf 1d 33 ce 3e
       0.24248885 -0.009679163 -0.93905926 0.4027337
0000a0 73 28 00 bf 80 fa 16 3f 32 e2 30 3e 9f 46 41 bf
       -0.5006172 0.5897598 0.17273787 -0.75498384
0000b0 2b 18 a1 bb ea 1d 4d 3f 0a 96 87 3d a7 94 b9 be
       -0.004916211 0.8012377 0.066204146 -0.36246225
0000c0 c4 9d 5e 3f c3 ac d7 be a2 05 b0 3e ba 01 3b bf
       0.8695948 -0.42123994 0.34379297 -0.7304951
0000d0 80 99 c2 be 5f d7 83 be 21 29 64 3f 08 64 b6 bd
       -0.38007736 -0.25750253 0.8912526 -0.08905798
0000e0 7a 6b 90 3e 1d b6 d0 3c c5 99 36 bf b2 19 a3 3f
       0.28206998 0.025477463 -0.71328384 1.2742217
0000f0 0e c5 0e bf 5d 63 b8 3d ba 63 88 3c af f4 e8 3e
       -0.5576943 0.09003327 0.016649116 0.4549918

fc_layers.0.running_mean f4 [64]
000000 c5 3d 2f 3c aa 87 a4 bc c9 85 80 bd 04 2f a9 3d
       0.010695879 -0.02008422 -0.062755175 0.08260921
000010 c0 2a e6 3c 40 ac 41 bd 08 23 c6 3c e4 0c aa bd
       0.028096557 -0.04728341 0.024186626 -0.0830324
000020 da 40 16 be c6 2e 35 3d 35 2b 1f 3d 44 df 04 bd
       -0.14673176 0.04423406 0.038859565 -0.032439485
000030 99 36 27 be 15 e6 e2 bd 61 c0 20 bd 67 b8 ae 3c
       -0.16329421 -0.11079041 -0.039245967 0.021328164
000040 f6 53 31 3e 9f f7 95 3d e4 4c d4 bd 32 40 0a be
       0.17317185 0.073226206 -0.10366228 -0.13501051
000050 8d a9 8d bc f3 10 e9 3d a2 63 a2 b9 a9 0e e9 3d
       -0.017292762 0.11380186 -0.0003097328 0.11379749
000060 38 23 9e 3c 13 f6 d7 bb bc 12 0b be b5 c5 4d 3d
       0.019303903 -0.0065906136 -0.13581365 0.050237376
000070 2c 3f 15 bd f8 e3 e8 3d 5d aa 15 be c2 bd f0 ba
       -0.0364372 0.113716066 -0.1461577 -0.0018367099
000080 55 02 f0 3c 7b e9 92 bd 7d a1 9a 3c 25 1e aa 3d
       0.029297987 -0.07173439 0.018875832 0.08306531
000090 8c 5d 43 3a e9 e9 0f 3e b3 fe 8b bd 99 52 03 bd
       0.0007452599 0.14054073 -0.068356894 -0.032061193
0000a0 4f b0 7e bd f7 0b 25 bd 74 36 71 bd 71 52 6d bd
       -0.06217986 -0.040294614 -0.05888982 -0.05793995
0000b0 16 36 ba bd 74 66 48 3d 7b 52 07 bd 0d cb 50 bd
       -0.09092347 0.048925832 -0.033037644 -0.050974894
0000c0 28 61 cb bc 84 b6 97 bc 44 a4 a7 3d 79 17 90 3b
       -0.024826601 -0.018519647 0.08185628 0.0043973294
0000d0 8c cc 28 bd 24 60 d3 bd 00 d1 c1 3d d0 e0 5f 3d
       -0.041210696 -0.10321072 0.09463692 0.054657757
0000e0 01 0d aa 3c 61 05 05 bd e5 3c c7 bc 34 59 0d 3d
       0.020758154 -0.032475833 -0.024321029 0.0345089
0000f0 2c e3 b9 bb 88 fa 99 3c 5c a8 6c bd 36 79 88 3d
       -0.005672833 0.01879622 -0.057777748 0.06663744

fc_layers.0.running_var f4 [64]
000000 9c 69 7a 3a 9c 85 18 3b d3 d2 13 3c f2 5d 0a 3b
       0.000955248 0.0023272997 0.009022432 0.0021113125
000010 29 54 7b 3b db 21 66 3c 29 b7 85 3c f5 bb 26 3c
       0.0038349724 0.014046158 0.01632269 0.010176648
000020 85 4a c1 3d 52 8a 3d 3c 9c 1d cc 3c c5 c4 09 3d
       0.094380416 0.011568623 0.024916463 0.03363492
000030 79 e7 53 3c 58 7f 64 3c 1b 8d b5 3c 8c 91 ea 3a
       0.012933605 0.013946377 0.02216201 0.001789616
000040 fb f1 56 3c 5b 3b dd 3a 25 82 7f 3d 25 c6 85 3d
       0.013119216 0.0016878651 0.062379975 0.06531934
000050 e9 cc b3 3b 34 f6 c2 3b c2 f9 1d 3a db 2c 84 3b
       0.0054870737 0.00594976 0.00060262915 0.0040336675
000060 b9 06 50 3b f8 6f 3f 39 0a 8a aa 3b 18 22 9b 3a
       0.0031742288 0.00018256891 0.005204444 0.0011835722
000070 87 80 fc 39 85 f8 b5 3a 9f a6 94 3d 0d 44 06 3b
       0.00048160946 0.0013883269 0.07258343 0.0020487339
000080 be 47 82 3a ca 3f 42 3d 9d 37 27 39 8e b0 06 3a
       0.0009939594 0.047424115 0.00015947079 0.0005138003
000090 e5 18 94 3b fc df 8a 3d 40 b8 28 3d 41 ce a8 3b
       0.004519569 0.06781003 0.04119134 0.0051515405
0000a0 8a 43 24 3b 6c 78 07 3a 26 55 c4 3c 03 4d f0 3c
       0.002506467 0.00051677856 0.023966383 0.029333597
0000b0 b4 ae 56 3d c7 e5 0a 3b 19 d4 bd 3a 6c 7a bd 3c
       0.052412704 0.0021194087 0.0014482766 0.023129664
0000c0 92 eb e4 39 df 46 5c 3b ec c2 49 3d 78 79 33 3d
       0.00043663062 0.0033611578 0.049258158 0.043817014
0000d0 ea 95 f9 3b 02 f9 20 3d 68 15 49 3d e9 f5 ba 3a
       0.007616748 0.039299972 0.04909268 0.0014263961
0000e0 16 82 53 3b 53 08 55 39 9a 3a 9d 3b 74 ab 40 3c
       0.0032273582 0.00020316364 0.0047982456 0.011759628
0000f0 ac 36 34 3a dc fb 5e 3a 58 ef 35 3d d4 00 bf 3c
       0.0006874602 0.0008506158 0.04441771 0.023315825

fc_layers.1.weight f4 [32, 64]
000000 44 18 99 bd 48 ae 9c bb 88 88 02 3d fd 5f 6b bd
       -0.074753314 -0.004781518 0.031868488 -0.05746459
000010 ce 59 0a be a7 5f 95 3d 03 ed cd bc 55 27 ad 3d
       -0.1351082 0.07293635 -0.02513743 0.084547676
000020 d2 a3 0e 3d fc 77 12 3d ad 70 7a bd 54 26 35 bd
       0.0348242 0.035758957 -0.061142612 -0.044226006
000030 45 c3 dd 3d be 19 6b bd f8 0e 59 3d 84 ef 84 bb
       0.1082826 -0.057397597 0.05299279 -0.004056873
000040 68 55 02 bd 8f 47 73 bc 3d 2c 0e bd 94 ea b4 bd
       -0.03181973 -0.014848604 -0.034710158 -0.08833805
000050 99 08 ce 3d 2b b5 72 3d 3c ef 35 3d aa 4b 47 3d
       0.100602336 0.059254806 0.044417605 0.048656143
000060 ee e0 c3 bd bc 0f 31 3c a5 8f eb 3d 84 e1 ae bc
       -0.09564386 0.010806974 0.115020074 -0.021347769
000070 54 e0 de 3c 01 dc 42 3e a9 6d a5 3d 3b b7 8d bd
       0.027206577 0.19029237 0.08077557 -0.06919714
000080 d5 02 74 3d 66 e5 99 bd 72 21 b9 bd d4 fa 9f bc
       0.059573013 -0.075144574 -0.09039582 -0.019528784
000090 9c 47 ae 3d 5e a0 0a bc e8 f1 2c 3d 9d 49 ef bd
       0.08509752 -0.008461086 0.042222887 -0.116839625
0000a0 f9 94 11 bd 17 11 f5 bd 95 19 e4 bd db d1 b8 3d
       -0.035542462 -0.1196615 -0.11137692 0.09024402
0000b0 76 a0 af bd 6b a2 81 ba 50 45 7c 3d 6f e3 f7 3d
       -0.08575527 -0.0009890323 0.06158954 0.121039264
0000c0 92 d4 89 3d ed 69 91 bb d4 f6 90 bd 06 d4 04 bd
       0.06729998 -0.004437676 -0.07078329 -0.032428764
0000d0 e2 17 6c 3d 64 8f 3a bc 80 26 89 bd dd d3 55 3d
       0.057639964 -0.011386726 -0.066967964 0.052204
0000e0 96 e6 e0 bc 46 a4 d4 bc eb 79 02 3c 52 9e bc bd
       -0.027453702 -0.025957238 0.007963638 -0.09209885
0000f0 a7 42 a1 bb 05 76 94 bd ab df 99 3d 19 85 e4 bb
       -0.0049212757 -0.07249073 0.075133644 -0.0069738743
000100 69 c6 16 3d 94 0b cd 3d 79 84 5f 3d de 50 df 3d
       0.036810312 0.10011974 0.054569695 0.10904096
000110 39 3b 6b 3d 23 7a 08 3e 38 2d 9d 3d 23 77 33 bd
       0.057429526 0.13327841 0.076746404 -0.04381479
000120 fb 1a 91 3d eb 82 49 3d 7f 1a 86 bc 07 1b 68 3d
       0.07085224 0.04919712 -0.016370056 0.0566664
000130 49 96 9f bd 77 6b 40 3b 28 cf a8 3d 96 35 50 3c
       -0.077923365 0.002936093 0.08242637 0.012708088
000140 1f 5d b2 3d 11 82 c4 bd 25 0b b1 bc 7f 97 7a bb
       0.08709168 -0.09595121 -0.02161176 -0.0038237271
000150 ac b5 0b 3e 3c af 8d 3b f9 fa 68 3d 78 ee a2 bd
       0.13643521 0.004323868 0.05687997 -0.079556406
000160 33 cb 03 be 3e 07 c4 bd 59 3a 4f 3d 39 ce 9e 3c
       -0.12870483 -0.09571694 0.050592754 0.019385444
000170 b9 36 00 3e 2b 24 23 3e f2 11 55 3d 85 5b 26 bd
       0.12520875 0.15931766 0.052019067 -0.040614624
000180 58 4e c2 bc 01 2b 8b bd ae 63 6e 3d ee 3b 81 3c
       -0.023718998 -0.06795312 0.05820053 0.015775647
000190 57 6d cf bd 9a 14 b6 bc 45 c1 ed 3d d4 15 26 3b
       -0.10128277 -0.02222662 0.11609129 0.00253426
0001a0 b6 8c de 3d 03 f1 a4 bd c8 02 01 be fe 9c af 3d
       0.10866682 -0.08053782 -0.12598717 0.08574866
0001b0 31 b7 e3 bd 52 4a 68 bc f4 d1 8b bd db 61 d5 3d
       -0.11118925 -0.014177876 -0.06827155 0.10419055
0001c0 f6 b0 ed bd 58 21 06 3e 76 38 fb bd 39 2c 86 3d
       -0.11606018 0.13098657 -0.122666284 0.065514036
0001d0 fd fe 4b 3d e0 c4 8c 3d d7 8c f8 bd 05 78 68 bd
       0.049803723 0.068734884 -0.12136238 -0.056755085
0001e0 4f 29 0b be 0f 18 8d bc 1f db 9b 3d 40 5f fd bd
       -0.13589977 -0.017223386 0.076101534 -0.12371683
0001f0 86 46 7c bd d9 b5 fe bd 91 b8 bf bd ac 32 a3 bd
       -0.061590694 -0.124370284 -0.09361375 -0.07968649
000200 32 db 89 3d ca a8 d7 3c 8e be 09 3e a1 22 d8 bb
       0.06731261 0.026325602 0.13451597 -0.006595925
000210 d2 a7 db bd f7 a5 02 3e 4f 27 fe bd 5a 26 b9 3d
       -0.107253686 0.12758623 -0.12409841 0.09040518
000220 80 ec 11 3c f5 4e 91 bd 2b e7 b0 bd a8 43 28 bd
       0.008906484 -0.07095138 -0.08637842 -0.041080147
000230 14 f4 c4 3d 4c 1f 88 bc dc ff d6 bd 92 ae a4 bc
       0.09616867 -0.016616486 -0.1049802 -0.020102773
000240 b3 a7 95 bd 53 9f 67 3d 53 10 21 3e 29 66 a6 3c
       -0.07307377 0.056548428 0.15728883 0.020312386
000250 b9 46 f8 bd ae 1c 47 3d 2b fe 22 bc 64 7f d4 3d
       -0.12122864 0.048611335 -0.009948294 0.1037586
000260 67 02 95 bd e5 15 0a bd 69 48 c9 3d 8b 8e 48 3d
       -0.07275849 -0.033712287 0.09828264 0.048964065
000270 7e fe 11 bd 08 db 33 3e c5 9b ba bd 69 85 98 3d
       -0.035643093 0.17564023 -0.09111742 0.07447321
000280 c8 f3 f8 3d 7d ee 49 3d 11 27 09 3c e8 a4 93 ba
       0.121558726 0.049299706 0.008371131 -0.0011264356
000290 73 f0 5c bb ae 53 73 3b e9 ca b2 3d 8e 20 b9 bd
       -0.0033712655 0.0037128734 0.08730108 -0.090394124
0002a0 be de ea 3d 5c 34 42 bc a1 ad ae bd 0e 81 c8 bc
       0.11468266 -0.011853304 -0.08529211 -0.0244756
0002b0 78 aa fd bd b9 23 14 3d f9 49 00 bd 8d 74 3e bd
       -0.1238603 0.03616688 -0.031320546 -0.04649787
0002c0 8d 7a 27 bd 97 76 1a 3d 49 ce cf bd 31 8c 10 3e
       -0.040888358 0.037710752 -0.10146768 0.14115979
0002d0 f1 65 a3 3d 0e 17 37 bc 59 f2 d9 bd 1a 1f a1 3d
       0.07978428 -0.01117493 -0.10641927 0.0786726
0002e0 f0 36 8b bc cc 96 ef bd 98 ba d1 3d ba e9 51 bd
       -0.01699397 -0.11698684 0.10240668 -0.05124829
0002f0 6c 93 0c 3e bf 41 96 3d a0 b2 b7 3c 1d 35 9d bd
       0.13728112 0.07336759 0.022424042 -0.07676146
000300 4f 83 d9 3a 0f dd c8 bd 54 35 b0 3d e3 3a aa 3d
       0.0016594919 -0.098077886 0.086039215 0.08312013
000310 21 e9 f4 3c 8d 13 03 3e 5e 37 14 3d 25 f4 f6 3d
       0.02989632 0.12800427 0.036185615 0.120582856
000320 82 68 e8 3d 22 9f de 3d fc db 21 3d 34 29 86 bd
       0.11348058 0.10870196 0.039516434 -0.065508276
000330 13 d4 c3 3d 23 68 3c bd fe 38 d0 bb 90 93 e2 3d
       0.09561934 -0.04599775 -0.0063544502 0.110633016
000340 44 4d cd bd 68 7a f2 bd ed 6d ea 3c 50 12 84 bd
       -0.10024503 -0.118397534 0.02861687 -0.06448805
000350 b2 53 61 3c c1 ab 9b bd b5 13 be 3d 16 e4 d9 3d
       0.013752865 -0.07601119 0.092811026 0.10639207
000360 ba 87 8f 3c 51 97 cc bc 19 17 87 3d 18 05 53 bd
       0.017520774 -0.024974497 0.065962024 -0.05151853
000370 e5 50 46 bd f3 f8 dc 3d 37 29 49 3d 42 fc 82 3d
       -0.04841699 0.10789671 0.04911157 0.063957706
000380 ab f9 8b 3d c4 d7 cf 3d b1 71 cd bd 3e 03 8c 3d
       0.0683473 0.10148576 -0.100314505 0.06836556
000390 9d 53 f3 3c d6 40 ea bd 8c b9 fe 3d 44 69 36 3c
       0.029702956 -0.11438148 0.12437734 0.011133496
0003a0 65 42 ec bd 47 dc d4 bd d6 61 b7 3d 84 8b ac 3c
       -0.11536101 -0.10393577 0.089542076 0.02106262
0003b0 5e e7 9c 3d b0 08 87 3d ca d1 9a bd dc 16 38 3d
       0.07661317 0.06593454 -0.07559545 0.044943675
0003c0 0d 13 e7 bd ce 4d 5a 3c d3 fa 0b be 69 17 74 3d
       -0.112829305 0.013324214 -0.136699 0.05959264
0003d0 22 db 7c 3d fd 83 36 bc 0a 44 2a bd ca 2d c2 3d
       0.06173242 -0.011139867 -0.041568793 0.0948139
0003e0 23 94 01 be 91 2d 15 bd ed 73 19 3e fe c2 66 bd
       -0.12654166 -0.03642041 0.14985628 -0.056338303
0003f0 90 65 89 bc 46 a7 87 bc 46 22 97 3d b3 1c 0c 3d
       -0.016772062 -0.016559254 0.07379584 0.034207057

fc_layers.1.bias f4 [32]
000000 21 78 06 be d8 c2 8d be 77 5a 04 be cb 75 3f be
       -0.13131763 -0.27687716 -0.12925135 -0.18697278
000010 63 dd 18 be af 41 4d be ee eb 81 be ac 95 2c be
       -0.14928202 -0.20044588 -0.25375313 -0.1685397
000020 7d 03 a3 be ed b9 03 be 76 00 85 be 41 78 75 be
       -0.318386 -0.12863894 -0.25976914 -0.23971654
000030 9a e5 e1 be b5 8e c3 be 70 b0 22 be b7 8c 48 be
       -0.44120485 -0.38194814 -0.15887618 -0.19584928
000040 b2 b8 6f be 0b 8e 29 be cc 93 54 be 13 0a 9e be
       -0.234103 -0.16558091 -0.20759505 -0.3086706
000050 c5 af ae be c7 29 84 bd d3 27 b3 be 2a f6 b4 be
       -0.34118477 -0.06453281 -0.3499132 -0.35344058
000060 ed 7e 55 be 73 63 25 be 93 b8 16 be e9 26 62 be
       -0.208492 -0.16151218 -0.14718847 -0.22085156
000070 77 36 3d be fe 9c 02 be a5 80 06 be ac fc 9b be
       -0.18477808 -0.127552 -0.13135011 -0.3046621

fc_layers.4.weight f4 [1, 32]
000000 ee 33 08 3c 07 50 57 bc 55 59 b8 3a e6 5f e8 3b
       0.008313162 -0.013141639 0.0014064709 0.00709151
000010 7b 01 ca 3c e2 4d 77 3a 46 f5 9a 3c 90 bd 9c bc
       0.024658909 0.00094339077 0.018915784 -0.01913336
000020 1b e5 4c bc bb c0 2b 3b 4a 52 11 3c a5 f9 c6 bc
       -0.012505795 0.0026207406 0.008869717 -0.024288962
000030 ba 39 0a 3c b1 40 82 3c aa b3 eb 3c 9a c2 17 3a
       0.008436615 0.015899988 0.028772194 0.0005789191
000040 2e 92 c7 3c 80 a3 68 3b 33 f3 78 3c 0d 6f 01 bd
       0.024361696 0.0035497844 0.015194702 -0.031600047
000050 12 94 ef 3b 2b 80 52 bb f4 35 6c 3c 84 45 23 3c
       0.0073113525 -0.003211985 0.01441716 0.009965304
000060 b3 39 86 bc 36 3c a4 3c 60 8e bc bc c4 3c 27 3c
       -0.016384935 0.020048242 -0.023017108 0.010207359
000070 52 d3 b3 3b 35 cc 43 3d 56 5b 9d 3c 13 ed 95 bc
       0.005487838 0.04780217 0.019208591 -0.018301522
