00_portfolio_real_data/lstm/trial_13_assets.pt (torch, 442516 bytes, 11 tensors)

lstm.weight_ih_l0 f4 [256, 6]
000000 c7 9f fe 3d 0c 78 8d 3e 89 ca 05 3e 18 7b db 3d
       0.12432819 0.2763065 0.13065542 0.10716838
000010 1e 34 94 3e 7f 14 a8 3e 31 2a 10 3e 02 9b 4a 3e
       0.28946012 0.32828137 0.14078595 0.19785693
000020 6c 04 e5 3d 90 12 4f 3e 41 03 fd 3d 26 1c 74 3e
       0.11182484 0.20221925 0.12354136 0.23838863
000030 2c 1e 4f 3d 2e 39 73 3d a1 d2 6a 3d 27 3d 1f be
       0.050565884 0.059380703 0.057329778 -0.15550672
000040 bf 12 24 3e 38 ed 0d 3e c1 25 ab 3d b3 8c b8 3d
       0.16022776 0.13860023 0.0835681 0.09011211
000050 1a 3b 8f 3d b0 24 12 3e d3 ed 10 3e a5 c9 0e 3e
       0.069936946 0.14271808 0.14153223 0.13944109
000060 2e 04 20 3e 97 4c b7 3d ae 46 74 3d c5 a4 16 3e
       0.15626594 0.08950155 0.059637718 0.14711292
000070 0a b9 72 3e 4c 5a c2 3d 9f 44 6a 3d 5a 1c 2f 3e
       0.237034 0.09489879 0.05719435 0.17100659
000080 82 64 51 3d 94 b5 77 3d 0b 25 80 3e 40 d3 06 3e
       0.051121242 0.0604759 0.25028262 0.13166523
000090 79 4b 17 3e 18 bd bb 3d 13 65 e3 3d 63 c8 79 3d
       0.14774884 0.09166926 0.11103263 0.06098212
0000a0 2e 84 4a 3e 4a 85 0e 3e 7b df a0 bd 85 b0 ae bd
       0.19776985 0.13918033 -0.078551255 -0.08529762
0000b0 d1 07 02 bd a8 80 d3 3d 0c 78 27 be ee e9 e1 bc
       -0.031745736 0.103272736 -0.16354388 -0.027577367
0000c0 33 85 39 3e 4b d0 27 3c 79 f0 3c 3e 92 15 67 3e
       0.18117218 0.010242532 0.18451108 0.22566822
0000d0 7d e4 26 bd dc 18 95 3d 21 6e 05 3e 3f f0 49 3e
       -0.040745247 0.07280132 0.13030292 0.19720553
0000e0 25 a6 2f 3e 6e e1 bc bb b2 bb 35 3e f8 57 a1 3d
       0.17153223 -0.005764178 0.17747381 0.07878107
0000f0 97 0b 34 3e 1e 22 a2 3e ac 07 1e 3e 37 c6 32 3e
       0.17582546 0.31666654 0.15432614 0.17458425
000100 e3 e5 c0 3d 44 1d 2e 3d 3f 3f 2f 3e c7 0c 37 3e
       0.094188474 0.04250838 0.1711397 0.17875968
000110 ca 89 b9 3d ef 16 94 bb 29 5d ac 3e b8 7b b5 3e
       0.09059484 -0.0045193355 0.33664826 0.35445952
000120 97 b4 82 bd a7 bf 02 3e 3f b2 01 3e 16 cd a7 3d
       -0.06382101 0.12768422 0.12665652 0.08193414
000130 32 bd b0 3e a8 bb e4 3d 0b b9 fe 3d c6 93 87 3d
       0.34519345 0.11168605 0.12437638 0.066199824
000140 45 23 09 3d 23 c8 54 bd 94 89 e1 3c f6 ab 69 3e
       0.0334809 -0.051948678 0.027531423 0.22819504
000150 b7 c6 f4 bd 76 85 78 bd 39 c2 c4 bd 44 67 32 be
       -0.11951964 -0.060674153 -0.096073575 -0.17422205
000160 bc 56 95 3e 9b 42 bd 3e 92 20 8c bd 26 3e 79 bd
       0.29167736 0.36964878 -0.0684215 -0.060850285
000170 48 14 1c 3b 54 ec 67 3d 6a c2 b3 3e f5 0f f5 3d
       0.00238158 0.056621864 0.35109264 0.11965934
000180 c3 45 54 be 05 1c c4 be d3 e3 7e be ae 2f 44 be
       -0.20729737 -0.38302627 -0.24891596 -0.19158813
000190 d4 1b dc 3e c6 a9 84 3e 05 16 87 bc de 5b 6f bd
       0.4298998 0.25910777 -0.016489992 -0.05843722
0001a0 27 1c 19 bd 28 4d bd bd 05 22 c7 3d 66 47 85 3e
       -0.037380364 -0.09243232 0.097232856 0.26031035
0001b0 dc 63 dd 3d 41 92 19 3e c0 ce a5 3d 80 02 01 3d
       0.10810062 0.14997198 0.08096075 0.031496525
0001c0 6f cd 82 3e 09 de a1 3e cd f8 18 bc 67 5c c7 bd
       0.25547358 0.31614712 -0.0093366625 -0.09734421
0001d0 60 89 00 3c 6a c7 8e 3d 46 66 14 3e b6 88 54 3e
       0.007845253 0.06971629 0.14492139 0.20755276
0001e0 82 be ea 3d 8a 02 f4 3c 58 0b 05 3e 7d 7c e6 3c
       0.11462118 0.029786367 0.12992609 0.028135533
0001f0 65 61 aa 3e c9 cb 6a 3e ee 27 7d 3e 04 fa b8 3d
       0.3327743 0.229293 0.24722263 0.09032062
000200 7b 7f 70 3e fd d4 23 3e db 11 5f 3e 3e 1c 76 3e
       0.2348613 0.15999217 0.21784155 0.24034211
000210 ca d9 3d 3e 85 6f d8 3c 57 87 4b 3e 6e 5d 50 3e
       0.18540111 0.026420364 0.19875847 0.2034814
000220 7e 49 9e bc 61 ef e0 3d 9c 53 11 bb b5 0d 2a 3d
       -0.019322153 0.10983158 -0.002217508 0.04151698
000230 11 07 27 bd eb 45 f0 3d 43 fe b2 3e 21 a4 53 3e
       -0.040778223 0.11732086 0.3495961 0.20668079
000240 08 3f be 3d 19 79 94 3c e6 c5 2f 3e b8 d5 ce 3c
       0.09289366 0.01812415 0.17165336 0.025248393
000250 66 64 c2 3e 91 b7 16 3e 16 bd 8b 3c 3d d6 02 be
       0.37967223 0.14718463 0.017057937 -0.12777038
000260 dc d2 9f bd 11 71 7c bd 61 82 ba 3e b4 07 8b 3e
       -0.0780389 -0.061631266 0.36427596 0.27154315
000270 ce 0e e7 3d e2 b2 af bc 5b 4c 8c 3d 4c 24 b2 3d
       0.11282121 -0.021447603 0.06850501 0.08698329
000280 4f 0b 14 3e b7 45 32 3e b4 ec 6f 3e 18 fb 37 3e
       0.14457439 0.17409407 0.23430139 0.17966878
000290 b1 7e b7 3d 75 15 22 3e d0 2b 6a 3e df ef cd 3e
       0.08959711 0.15828498 0.22868276 0.4022207
0002a0 5e 6e 73 3e db a4 24 3d 4d 31 d1 3d ae fa 4c 3e
       0.2377257 0.04019628 0.102144815 0.20017502
0002b0 88 5f 46 3e a3 de 9d 3d a3 a0 7d 3e df d1 0c 3d
       0.1937238 0.0770848 0.2476831 0.034379836
0002c0 36 e3 3f 3c a6 ac 29 3e 72 82 55 3e a2 e6 46 3e
       0.011711886 0.16569766 0.20850542 0.19423917
0002d0 4d e0 3a 3d 86 bf 3e 3e e5 81 5f 3e 39 a5 bc bc
       0.045624066 0.18627748 0.21826895 -0.023028003
0002e0 aa 77 90 3e 1d 31 87 3e f9 ee 84 3e 2d d1 8f 3e
       0.28216296 0.26404658 0.25963572 0.28089276
0002f0 81 dc 3b 3e 56 0a 87 3e c2 0c aa 3e 13 1f 86 3e
       0.18345834 0.26375073 0.33212858 0.26195583
000300 e0 f1 9e bd ae 10 8b 3d 44 13 c1 bd f4 06 0b be
       -0.07760978 0.06790291 -0.09427503 -0.13576871
000310 10 4d b9 3d aa 6a eb 3c b2 e5 a4 3d ee a1 61 bd
       0.09047902 0.028737385 0.080516234 -0.05508607
000320 73 37 b3 3c 05 62 10 3e 4c 86 2b 3e a0 f1 4b 3e
       0.021877026 0.14099891 0.16750449 0.19916391
000330 ce bd b1 3d dc 09 c8 bd 30 a6 e7 bb 51 08 a0 3d
       0.086787805 -0.097675055 -0.0070693716 0.07814086
000340 cd 97 8f 3e 23 f9 0f 3e f1 09 29 3e 44 25 85 3e
       0.28045502 0.14059882 0.16507699 0.26004994
000350 06 2f ef 3d 05 cf 5b 3e 5a 1e 11 3e e7 5e 87 3d
       0.11678891 0.2146569 0.14171734 0.06609898
000360 fe 6f 7e 3c 06 e6 5c 3d da 60 75 bd c5 13 1d 3e
       0.015529631 0.053930305 -0.059906818 0.15339573
000370 7e 3b 30 3e c2 a8 74 3e db cd 39 bd 3a 87 85 3d
       0.17210194 0.23892501 -0.045362335 0.06519933
000380 c0 00 82 bd a3 07 8b 3d 39 0e 4b 3e fd e7 50 3e
       -0.06347799 0.06788566 0.19829644 0.20400997
000390 46 0b 81 3d 35 80 fd 3d d9 f6 42 3e 88 b4 7e 3e
       0.06300978 0.12377969 0.19039477 0.24873555
0003a0 e0 22 28 3e 1a 31 7e 3e 92 7a c3 b9 2e a3 b0 bd
       0.16419554 0.24823418 -0.0003728462 -0.08624874
0003b0 98 f7 eb bd 0a 2a 25 bc 0d db ed 3e 27 a3 97 3e
       -0.11521834 -0.010080824 0.46456185 0.29616663
0003c0 68 a6 01 be 0e e1 23 be 18 85 42 3c cc 90 9c 3b
       -0.12661135 -0.1600382 0.011872552 0.0047780033
0003d0 b7 50 9d 3d 31 d0 e7 3d 31 af 1f 3e 29 85 c2 3c
       0.07681411 0.11319006 0.15594174 0.023745136
0003e0 75 73 23 3e 1b 51 9f 3d 4b 23 4d 3e 15 08 2f 3e
       0.15962012 0.077791415 0.20032994 0.17092927
0003f0 df 96 28 3e 38 47 d9 3d 49 da 71 3e ae 5e 9e 3d
       0.16463803 0.10609287 0.23618425 0.077329025

lstm.weight_hh_l0 f4 [256, 64]
000000 d8 2f 45 be c9 c1 c4 3b 93 79 2f be 9a 6d 52 bd
       -0.19256532 0.0060045463 -0.1713622 -0.051374055
000010 9b 6e 6a be b5 d9 29 3e 91 ac 8b 3e 54 8a bb 3e
       -0.22893755 0.16586955 0.27280095 0.36628973
000020 fe e0 83 be cc 7d d4 3d cc 66 08 3d 05 97 85 bd
       -0.25757593 0.10375556 0.03330116 -0.06522945
000030 97 11 bf bc ca 6b 3c 3e aa 8a 97 3e 67 9f 94 3e
       -0.023323817 0.18400493 0.2959798 0.29027864
000040 ed 98 02 be 91 3f 76 be cd 65 4c be af 81 45 3e
       -0.12753649 -0.24047686 -0.19960709 0.19287752
000050 72 63 63 3c 8e f7 fb bd 7a 74 e0 3d 2c 2d bb be
       0.01387869 -0.12303077 0.10959716 -0.365579
000060 eb a6 4e be 9a 44 16 3e 94 fc b1 3e 99 78 11 3e
       -0.20180862 0.14674607 0.34763014 0.1420616
000070 93 5d 16 b9 20 ce 95 bd 15 18 f1 3d 26 cd 7f 3e
       -0.00014339974 -0.07314706 0.117721714 0.24980602
000080 eb 58 91 3e e7 32 5a be 82 5a 2f be 6c 7c 58 bd
       0.28388152 -0.2130848 -0.1712437 -0.052853033
000090 28 73 ef bd 5a cd 1a be fc e9 85 bd 03 5c 64 be
       -0.11691886 -0.15117398 -0.065387696 -0.22300725
0000a0 f3 d0 61 3e e1 4e 4e 3e cc f0 ec 3d 5e 49 5a be
       0.22052364 0.20147277 0.11569366 -0.2131705
0000b0 0a 88 91 3e ee f2 8f bd 68 0c 3d 3d 10 c7 9e 3e
       0.28424102 -0.07028757 0.04615441 0.31011248
0000c0 7a 32 3b 3e 8f 2b 02 3d e3 77 bc bd 4b b7 fd 3d
       0.18280974 0.031779822 -0.09202554 0.12388476
0000d0 88 c5 20 3e 04 59 db 3d 60 3b 4a 3e 44 26 af 3b
       0.15700352 0.10710338 0.19749212 0.005345138
0000e0 d6 30 0c be 07 7e 36 be 3c e0 e5 bc 29 f0 28 3e
       -0.13690504 -0.17821513 -0.028061025 0.16497864
0000f0 43 93 58 3e 3d 12 ea 3d 47 f9 71 3d ae 8d b4 3d
       0.21149926 0.1142926 0.05907562 0.08816086
000100 c3 49 11 bd 29 c5 ad bd 7e 46 3c be f3 f4 54 3c
       -0.035470735 -0.08484871 -0.18386266 0.012997854
000110 28 ca b9 bd 8c bb 6a 3c 76 e5 df bc a6 93 97 3e
       -0.09071761 0.014326941 -0.027331095 0.29604834
000120 eb 84 51 bd 15 a0 3b 3e bf 78 11 be e6 47 b8 bd
       -0.05115215 0.18322785 -0.14206217 -0.089980885
000130 cc c6 fc 3d 7f 82 57 3e fb a0 32 3e 03 0c 44 3e
       0.12342605 0.21045874 0.17444222 0.19145207
000140 61 df 1d 3d 4b 31 3c be f0 b0 56 be 40 90 44 3e
       0.03854311 -0.18378179 -0.20965934 0.19195652
000150 35 24 46 3d 71 7c 04 be 86 67 c6 3d e0 76 51 be
       0.048374373 -0.12938096 0.09687714 -0.20455503
000160 23 2a 28 be 60 8d 91 3e d0 94 89 3e b4 ec 77 3e
       -0.16422324 0.28428173 0.26871347 0.24211389
000170 7a e3 e1 3c f0 a1 c4 bd d4 dd 47 3e 8a a5 ed 3d
       0.02757429 -0.096011996 0.19518214 0.1160384
000180 f4 bb 17 3e 40 32 44 be 84 a9 fa bd 45 8d 0f bd
       0.14817792 -0.19159794 -0.12239364 -0.035046834
000190 23 e6 b8 bd 7a cc 84 be 5a b9 08 be 3e 81 08 bd
       -0.0902827 -0.25937253 -0.13351956 -0.03332638
0001a0 d6 34 01 3e 3e d8 e2 3d 13 e4 34 bc 36 d7 54 bd
       0.12617812 0.11076401 -0.011040705 -0.051963054
0001b0 c6 98 5a 3e e0 a5 2e be c5 12 1e be c5 8a 68 3e
       0.21347341 -0.17055464 -0.15436848 0.22709186
0001c0 5f 78 dd b9 74 2b 71 3e c2 52 13 be af b0 2a 3e
       -0.00042242088 0.23551732 -0.14387038 0.16668962
0001d0 ab 0e 14 3d 4c ae 2d 3e aa e9 16 3e ad 93 39 3e
       0.0361468 0.1696102 0.14737573 0.1812274
0001e0 2f 4b 98 bd 81 f1 ea 3c bd dd c4 bd be 66 5c 3d
       -0.07436215 0.028679611 -0.09612606 0.05380892
0001f0 cf 0f e0 3d 54 e9 80 3e 13 85 b6 bd 6b d7 c3 bc
       0.10940515 0.25178015 -0.08912101 -0.02390643
000200 b1 2a ed bd 98 97 65 bd 71 25 42 be 57 9c 9a 3b
       -0.11580408 -0.056052774 -0.18959595 0.004718344
000210 d0 80 db 3d 1e 3c 0a be b4 2a c0 bd 60 73 00 3e
       0.107179284 -0.13499495 -0.09383145 0.12544012
000220 0c fd 2e be ca 39 42 bd 1f 76 b5 3d 81 11 c2 bd
       -0.17088717 -0.047418393 0.088604204 -0.09475995
000230 02 cf 2b 3d 8b 55 b0 3d 98 8a 17 be b5 d5 45 bd
       0.041945465 0.08610066 -0.14798963 -0.04829951
000240 48 5c 0c 3e b4 c2 b4 3c 57 f0 14 3e 5d dc c7 bd
       0.13707078 0.022065498 0.14544807 -0.09758828
000250 56 83 60 bd e3 08 a3 3b a5 40 fa bd 25 6d fd bd
       -0.05481275 0.0049754246 -0.12219361 -0.12374333
000260 a4 86 b4 bb 6f 03 df 3c 07 67 01 3e 67 3f 2c 3e
       -0.0055092145 0.027223317 0.12636958 0.16821061
000270 be 63 e6 bc b7 42 36 bd f9 12 ef 3c 40 d1 d8 bd
       -0.028123733 -0.044497218 0.029183852 -0.10586786
000280 aa 73 9c bc c0 dc 50 bd f0 b4 3d 3d a3 53 85 bd
       -0.019098122 -0.050991774 0.046315134 -0.06510093
000290 c9 53 e1 3d d9 84 21 3e 84 46 9d 3c 1d 96 ff ba
       0.11002309 0.15773334 0.019198664 -0.0019499693
0002a0 e5 2d 57 3d 7f e1 e2 3c e4 fd b4 bc 99 9a 44 bd
       0.052534003 0.027695416 -0.02209372 -0.047999
0002b0 a4 77 8e 3e c2 b6 15 3e a8 f7 64 3c 81 57 43 3e
       0.27825654 0.14620498 0.0139750615 0.19076349
0002c0 49 76 89 3c 02 28 90 3d 9d e0 9c 3d c9 7f 14 bd
       0.016780036 0.07038881 0.07660029 -0.036254678
0002d0 85 47 34 3d 12 14 46 3e 28 3d 95 bd 74 e3 cf 3c
       0.04401352 0.19343594 -0.07287055 0.025377013
0002e0 4d 99 4c 3d b6 71 10 3d e3 ab 99 bc e6 72 47 b9
       0.049950887 0.035264693 -0.01875872 -0.00019020922
0002f0 b3 a2 db bd 2f 34 2b bd 4a 26 68 bc 88 e8 88 bd
       -0.10724392 -0.041797813 -0.014169285 -0.06684977
000300 5e 83 98 3d 3b 3b ee bd 9e 38 a6 3d 3f 33 c6 3c
       0.07446931 -0.11632391 0.081162676 0.024194358
000310 f2 7a 84 bc 85 56 bf 3c db 38 d8 bd 80 1a e8 3d
       -0.016171906 0.023356685 -0.10557719 0.113331795
000320 0f 45 84 3c 44 19 87 bd 5d 50 bd 3b 23 3e 2f be
       0.016146211 -0.06596616 0.0057774023 -0.17113547
000330 ab 07 00 3e af 2c cd 3d ac 81 c9 3d b4 1c c1 bd
       0.12502925 0.10018288 0.09839186 -0.09429303
000340 6d 8c ca 3d 66 35 da 3d 4c d6 97 3d 30 a2 93 3d
       0.09890065 0.10654716 0.07413921 0.07208669
000350 1b 23 2e bc 30 40 52 bd dc 6d 52 3e 0b dc a7 3d
       -0.010628487 -0.051330745 0.2054972 0.08196267
000360 a4 c4 8d 3d 9e ae 64 3d d7 ea 61 bc e3 27 04 be
       0.06922272 0.05583059 -0.0137889 -0.1290584
000370 40 4c bd 3d 25 97 a7 bd f4 d3 05 be 46 1d 43 bd
       0.09243059 -0.081831254 -0.13069135 -0.04763534
000380 34 ce 0c 3d 62 95 2b 3d c1 7c b4 bd fe 9f de bb
       0.034376338 0.04189051 -0.088128574 -0.006793975
000390 c5 63 93 bc 65 42 0e bd 53 8a 9e bd c5 96 b2 3b
       -0.01799191 -0.034731288 -0.07741227 0.005450102
0003a0 bf 52 44 be 78 9d 00 3d af 23 b7 bd 04 87 00 3d
       -0.1917219 0.031400174 -0.08942353 0.03137876
0003b0 0f 72 82 3e e5 9b 8f 3d f5 35 4e bd 67 76 f0 bd
       0.25477645 0.070121564 -0.050344426 -0.117413335
0003c0 92 d2 4a 3d b5 cf 84 3d 54 57 51 3d 53 f9 a7 bc
       0.04951722 0.064849295 0.051108673 -0.02050463
0003d0 9d 00 ee bb b4 8c 2e 3d c7 82 21 be 47 5c f2 3d
       -0.0072632567 0.042614654 -0.15772544 0.11834007
0003e0 a4 df 12 3d 8c 0b 05 bd be 9e b2 bd 27 7c 1c 3d
       0.03585781 -0.032481715 -0.08721684 0.03820434
0003f0 32 24 03 bd e4 d6 a1 3d 19 d9 b6 3d 0b 8c 90 bd
       -0.03201694 0.07902315 0.08928127 -0.07057961

lstm.bias_ih_l0 f4 [256]
000000 84 9c e5 be fa 00 32 be ef ab a8 bd 4a 4f a9 bd
       -0.44845974 -0.17383185 -0.08235919 -0.08267076
000010 cd 84 c9 be a8 1e d3 bd 6c a0 f1 bd d0 71 a5 3c
       -0.3935913 -0.103085816 -0.11798176 0.020195872
000020 30 a5 21 be fb 8c 8b bc b6 2a 24 bc 5b c7 e0 be
       -0.1578567 -0.017034998 -0.010019949 -0.43902096
000030 17 79 89 be 5c fd 53 3d 29 aa 2e bd 43 d5 b8 bb
       -0.26850197 0.051755294 -0.042642746 -0.005640657
000040 c0 11 05 bf de 59 0d be 00 96 5c be 06 c6 42 bd
       -0.5198021 -0.13803813 -0.21541595 -0.04755213
000050 ed 99 8c be 6c fb 84 be ca 18 0f be 4d 1a 9e be
       -0.27461186 -0.2597307 -0.139743 -0.3087944
000060 22 65 b7 be e1 81 89 be 7b 65 91 be a6 73 e3 be
       -0.35819346 -0.26856902 -0.28397736 -0.4442417
000070 48 79 73 be b9 fd dd be e2 b7 2b be 2d 5e 32 be
       -0.23776734 -0.43357638 -0.16769364 -0.17418738
000080 a5 f8 18 3c 67 65 da bd b6 5a 52 be 04 3b 56 be
       0.009336625 -0.10663872 -0.20542416 -0.2092095
000090 19 65 30 be a2 56 27 bb d5 3b fd bd ff 43 ea be
       -0.17226066 -0.0025533815 -0.12364928 -0.45755002
0000a0 03 1b 18 3d 1c 34 be be de b0 90 be be 0b b3 be
       0.037135135 -0.3714913 -0.2825994 -0.34969896
0000b0 5f 41 27 be d0 0f eb be 8b 0e 6e be 2e c6 f9 3c
       -0.16333531 -0.459105 -0.23247735 0.030490007
0000c0 d0 d3 75 be 38 7d dc bd e4 3d 9c ba 57 56 61 be
       -0.24006581 -0.10766071 -0.00119203 -0.22005592
0000d0 22 3c 1e be 19 f0 65 be e0 63 d2 be ae 9a 76 be
       -0.15452626 -0.22454871 -0.41091824 -0.24082443
0000e0 f4 b1 3c be fd e2 0d be 64 8b a8 be 25 1c 54 be
       -0.18427259 -0.1385612 -0.32918847 -0.20713861
0000f0 d2 19 04 be d4 76 52 bd 99 e7 ad be 6a 1d a4 be
       -0.12900475 -0.051382855 -0.33965757 -0.3205369
000100 d4 47 6d be 52 fb ae be 30 22 2c be e9 11 04 bd
       -0.23171932 -0.34176117 -0.16809916 -0.032243643
000110 25 23 cf be a1 09 5d be 1a 9c 2f bd 77 2e cd 3d
       -0.404565 -0.21585704 -0.04287348 0.10018628
000120 45 ca 3a be 05 47 2f be 22 a6 bf bd 72 ed da be
       -0.18241222 -0.17116936 -0.09357859 -0.4275928
000130 84 a5 78 be 45 52 91 be c0 23 06 ba f2 8f 91 be
       -0.24281889 -0.2838308 -0.00051170215 -0.28430134
000140 8c 2e 44 be 74 3c 84 be ab 84 c4 be 60 52 88 be
       -0.19158381 -0.25827372 -0.38382468 -0.26625347
000150 87 33 c3 be ba 0c b7 bd 5b b5 34 bd 6f 7e 8e be
       -0.3812525 -0.08937974 -0.044118267 -0.27830836
000160 65 26 b4 be aa e8 b8 be 3e 4c 8c be f2 7e c2 be
       -0.35185543 -0.3611501 -0.27401918 -0.37987477
000170 83 32 31 be ce f8 0f be 69 44 20 be 5d 82 b4 be
       -0.17304425 -0.14059755 -0.15651096 -0.3525571
000180 65 ff b7 bc 76 75 a6 be bb 46 99 bd 08 74 70 be
       -0.022460649 -0.3251149 -0.07484194 -0.23481762
000190 7e 48 6d be 84 ff 92 be b2 e7 d2 bd e6 2e e3 be
       -0.23172185 -0.28710568 -0.102980986 -0.44371718
0001a0 52 2c 85 be 6a aa a2 be 82 7b b4 be bf d5 ba be
       -0.26010376 -0.3177064 -0.3525048 -0.364912
0001b0 34 5d 6d be ff 5d a7 be 22 0b f7 bd 90 b6 4c be
       -0.23180085 -0.326889 -0.1206267 -0.19991517
0001c0 86 27 b1 be 77 f6 96 be f8 4f b8 be 8c f9 2d be
       -0.34600466 -0.29484913 -0.3599851 -0.16989726
0001d0 f8 30 08 be 76 07 67 be a6 c0 16 bf f7 15 6a be
       -0.1329993 -0.2256144 -0.5888771 -0.22859941
0001e0 ac 6b d4 be 40 40 07 be d8 52 99 be 8c b5 9b be
       -0.41488397 -0.13208103 -0.29946017 -0.30411947
0001f0 e7 6d b6 be 2b c4 ad be 1b 9d 41 be 11 5a ab be
       -0.35630724 -0.33938727 -0.18907587 -0.33467153
000200 3e 46 ce bd a5 ee 25 bd a4 01 a0 3d 35 1f c6 3c
       -0.100719914 -0.040510792 0.07812813 0.024184803
000210 ba 57 91 3d 37 cb 24 be 12 26 0f bd 4d 39 ad be
       0.07096811 -0.16093145 -0.034948416 -0.3383278
000220 4e 7b cd 3d 49 64 db 3d 9f 04 24 be 7b d0 dd 3c
       0.10033284 0.10712487 -0.16017388 0.02707695
000230 b6 32 bb bb b9 8e 60 bd fd ab 47 be 27 51 b4 3c
       -0.0057128323 -0.05482361 -0.19499202 0.022011353
000240 76 86 bc bc 4d 20 c1 3c 9a fe 99 3d b5 ff 98 bb
       -0.023013335 0.023574973 0.075192645 -0.0046691545
000250 d1 b3 ce bd 03 0c 26 3c 1f f3 06 3e bd df fd 3d
       -0.10092891 0.0101347 0.13178681 0.1239619
000260 c9 84 3c 3c 1f dc 3a bc 84 56 36 be 1b 96 3e 3d
       0.011506268 -0.01140502 -0.1780644 0.04652987
000270 a6 c8 af 3d 4f ee 59 bd 0b 76 1b bc 9c 88 be 3d
       0.085831925 -0.053205784 -0.009488593 0.093034
000280 2f 82 56 be 6a 7c d8 3d 19 6d 3a 3e 94 b1 f1 bc
       -0.20948099 0.10570605 0.1820568 -0.029503621
000290 35 48 df 3d 4b 69 98 3d b4 7f 89 3d e7 51 25 3d
       0.10902444 0.07441958 0.067138106 0.04036131
0002a0 da 90 51 3d 4a 7f 3c bc 91 6b 1f bd 33 70 3d bc
       0.05116353 -0.011504957 -0.038920943 -0.011562395
0002b0 a2 68 33 3c 11 70 ad bd c9 2d 15 be 88 dd 90 be
       0.010950239 -0.084686406 -0.14568247 -0.28294015
0002c0 6a 7b 80 3d be 4f 1f be af 61 b4 3d 27 9a 0e 3d
       0.06273539 -0.15557763 0.08807694 0.03481498
0002d0 6b 09 3c be c8 0e da bd 65 aa 4d 3d 4c 08 28 3c
       -0.18362968 -0.106473505 0.05021133 0.010255884
0002e0 e6 43 ef 3d 71 bd 8a 3c 2b db ff 3c 3b da 48 bd
       0.116828725 0.016936036 0.031232437 -0.049036246
0002f0 61 0a 26 3b 6d 72 42 bd a7 1d d9 3b 4f ce 8a 3d
       0.0025335776 -0.047472406 0.0066258493 0.067776315
000300 7c b8 d9 be 32 4d 1c be d3 92 36 be 6e 25 18 be
       -0.42523563 -0.15263823 -0.17829446 -0.14858028
000310 01 c6 ff be ba 0e 4c be 99 e5 1b bd b0 22 3d 3c
       -0.49955752 -0.19927493 -0.03806076 0.011543915
000320 c5 ca 7f bc 0d 17 98 bd 3c f3 c7 bd c3 03 80 be
       -0.015612309 -0.074262716 -0.0976319 -0.2500287
000330 bf 04 c6 be 53 39 3a bd d0 5a 3c bd da ce 83 3d
       -0.38675496 -0.045464825 -0.045985043 0.06435938
000340 6d ec e8 be 21 9f b5 bd 16 36 92 be f1 2b a6 bd
       -0.4549288 -0.08868242 -0.2855689 -0.0811385
000350 ec fc 9e be 9d 51 9a be 75 7f 4e be 0e d2 46 be
       -0.3105234 -0.3014039 -0.20165808 -0.19416067
000360 da 69 f7 be c5 ca a9 3a 2b b5 52 be 0b f6 83 be
       -0.48322946 0.0012954107 -0.20576923 -0.25773653
000370 f4 bc 63 be 90 b3 39 be be 2d 01 be 7c 86 ab be
       -0.22240049 -0.18134904 -0.12615106 -0.3350104
000380 de d7 28 3e 11 43 08 be 1e 1b 79 be c2 8a 4a be
       0.16488597 -0.13306834 -0.2432675 -0.19779494
000390 ee 5d 15 be 75 b2 ce bd 15 85 a1 be e6 09 ee be
       -0.14586613 -0.10092632 -0.31546846 -0.46491927
0003a0 b6 47 a5 bd af 0a 79 be 13 27 a8 bd 08 65 eb bd
       -0.080703184 -0.24320482 -0.08210578 -0.114938796
0003b0 0f 96 3f bd 6b 0f c7 be 6d ff 00 be 4a b2 21 be
       -0.046773966 -0.3887895 -0.12597437 -0.15790668
0003c0 fd e4 7e be 01 60 bc bd b1 1e 1c be e5 b6 c7 be
       -0.2489204 -0.09197999 -0.15246083 -0.39006725
0003d0 e7 13 fa bd 3a d8 db be 26 a5 6e be b7 b6 4f be
       -0.12210827 -0.42938405 -0.23305187 -0.20284544
0003e0 c7 ca 8c bc f2 82 70 bd dd f3 63 be 4f c9 4a be
       -0.017186536 -0.05871863 -0.22260995 -0.19803356
0003f0 80 cf 9a bd 2b 9a ba bc 34 47 88 be c3 c9 b8 be
       -0.07559109 -0.022778591 -0.26616824 -0.36091432

lstm.bias_hh_l0 f4 [256]
000000 85 34 8d be 14 d6 5c be 6c e7 7a be bd 4c b9 bd
       -0.27579132 -0.2156604 -0.24502343 -0.0904784
000010 5f 66 d2 be 17 05 de bd e8 2a 4f be 95 07 6e 3e
       -0.41093728 -0.108408146 -0.20231211 0.2324508
000020 3c 39 95 bd 00 86 8d bd 29 8f e7 bd 79 8a c7 be
       -0.07286307 -0.06910324 -0.113066025 -0.38972834
000030 c4 d2 e0 be 23 f8 15 3d e6 2a 8b bd de 8b 47 bb
       -0.439108 0.036613595 -0.067952916 -0.0030448358
000040 49 99 e1 be 6f 89 24 be c7 7d 95 be 43 80 86 bd
       -0.4406226 -0.16068052 -0.29197523 -0.06567433
000050 3a cc cb be 85 d7 93 be c4 6f 0c be c7 c4 81 be
       -0.3980425 -0.28875366 -0.1371451 -0.25345442
000060 2d a1 d8 be 81 2a 90 be 93 26 4e be 9c 50 e9 be
       -0.42310467 -0.28157428 -0.20131902 -0.45569313
000070 f2 c8 bc be 43 28 c7 be b9 85 b8 be f2 12 a6 be
       -0.3687206 -0.38897905 -0.36039522 -0.3243633
000080 26 1e e3 3d 9f 26 a3 bd 13 6d 84 be 70 a7 45 be
       0.11089735 -0.07966351 -0.25864467 -0.19302154
000090 02 64 9f be b8 fe 3a bd b9 ee 82 be 55 be 08 bf
       -0.31130987 -0.045653075 -0.25572756 -0.53415424
0000a0 3c 17 dd bc ab 55 d6 be 4d f0 9b be 38 82 3f be
       -0.026988618 -0.41862234 -0.30456772 -0.18702018
0000b0 9c b2 fa bd 39 5a a1 be 2f bc 17 be d9 d2 ad 3c
       -0.12241098 -0.31514147 -0.1481788 0.021218704
0000c0 a8 fc 97 be 59 0d 19 be 46 49 9e bd 63 41 cb be
       -0.2968495 -0.14946498 -0.077288195 -0.39698324
0000d0 6b 4b 87 bd 43 55 7e be e9 00 ab be 59 68 1b be
       -0.06606182 -0.24837212 -0.33399132 -0.15176524
0000e0 5e ac 8e be ec 87 a0 bd 4d 5c 9d be 2f e9 8c be
       -0.2786588 -0.07838425 -0.30734482 -0.27521655
0000f0 33 81 27 be 67 82 f2 bd 1e d3 24 be 59 56 c7 be
       -0.1635788 -0.118412785 -0.1609616 -0.38933066
000100 30 a6 b4 be 9f 2b a8 be a0 fc 85 be c2 bf ad bc
       -0.3528304 -0.3284578 -0.261693 -0.021209601
000110 aa e4 73 be 94 9b 0d be 20 14 3d be 5b da 13 bc
       -0.23817697 -0.1382888 -0.18464708 -0.009024228
000120 39 42 13 be a8 d3 95 be d9 67 5f bc 50 d9 02 bf
       -0.1438073 -0.29263043 -0.013635599 -0.5111284
000130 3c 5f e9 be a7 92 49 be fe 9c 7b bd d0 da aa be
       -0.4558047 -0.1968485 -0.061429016 -0.33370066
000140 40 2e 81 be 6f 18 d1 bd 96 eb d5 be 8f d5 b2 be
       -0.25230598 -0.102097385 -0.417813 -0.34928557
000150 a0 e0 c8 be 64 98 4d be 29 41 5f be a8 99 de be
       -0.39233875 -0.20077664 -0.218022 -0.43476605
000160 c2 02 ea be a7 a6 53 be 5c 15 d4 be ca 84 8e be
       -0.4570523 -0.20669042 -0.41422546 -0.27835685
000170 96 75 fa bd 84 85 36 be 66 11 8b be c2 96 4b be
       -0.12229459 -0.1782437 -0.2716171 -0.19881728
000180 bb ff a8 bd d7 d6 15 be bc 01 8c be 83 10 85 be
       -0.08251902 -0.14632736 -0.27345073 -0.2598916
000190 77 a9 42 be 4a 07 0c be 0e ba 87 bd 38 d1 15 bf
       -0.19009958 -0.13674656 -0.06627284 -0.5852237
0001a0 88 72 1a bd 45 37 7e be b7 6c 8f be 6d b9 43 be
       -0.03770688 -0.24825771 -0.2801263 -0.19113703
0001b0 9f 38 e2 bd e1 82 98 be 00 7e a9 bd 53 15 47 be
       -0.11045956 -0.29787353 -0.08275986 -0.19441728
0001c0 c1 dc a5 be d9 b3 8b be 27 e9 d1 be c5 ef 4a be
       -0.32394984 -0.2728565 -0.40998194 -0.19818027
0001d0 2f c1 ac be e1 9f 20 be 48 a0 11 bf ad 40 39 be
       -0.33741137 -0.15685989 -0.56885195 -0.18091078
0001e0 a3 23 b7 be 3c 24 b0 bd 80 b8 fd bd c6 99 4f be
       -0.35769376 -0.08600661 -0.12388706 -0.20273504
0001f0 ee 44 49 be 0a 3a 84 be 58 1e 02 be 67 97 80 be
       -0.19655201 -0.2582553 -0.12706888 -0.2511551
000200 e1 4e 52 bd 51 67 f7 3d e3 95 3e 3d a4 c0 20 bd
       -0.051344756 0.12080253 0.046529662 -0.039246216
000210 0c a9 fb bd 16 96 a7 3d a2 92 83 bd 1f 51 a4 be
       -0.122881025 0.081829235 -0.06424452 -0.3209314
000220 2a c3 35 3d 5f f3 60 bd 1d a9 24 be 8e 58 14 3e
       0.044375576 -0.054919597 -0.16080137 0.14486906
000230 79 8e 07 be 71 a5 81 bd 6d 4e 42 be 17 a0 06 bc
       -0.13237943 -0.063303836 -0.1897523 -0.008216879
000240 8e 96 09 3e f8 61 36 3e c0 ca ab bd 8b f4 d5 bd
       0.13436338 0.1781081 -0.08388281 -0.104470335
000250 74 10 ea 3d d9 e2 92 ba 71 eb 56 bd 72 29 4a bc
       0.114289194 -0.0011206522 -0.05247063 -0.012338983
000260 21 33 bd bd ee 2c 03 be 71 a9 12 be 01 23 b4 bd
       -0.09238268 -0.12810108 -0.1432245 -0.08795739
000270 3c 4a 29 3b 2c b7 34 bd a0 6a 5c bd b1 de 5f 3d
       0.00258316 -0.04412 -0.053812623 0.054655734
000280 97 61 b1 be 31 6d 27 3e 61 94 0a bd 53 fb 82 3d
       -0.34644768 0.16350247 -0.03383291 0.063955925
000290 22 3e a5 3d b1 df 68 bd fe 22 21 bd 65 d8 52 bd
       0.080684915 -0.056853954 -0.03934001 -0.0514759
0002a0 20 3d 28 bd 73 ff c4 bd ef ac 3b 3e 83 05 9b 3d
       -0.04107392 -0.096190356 0.18327688 0.07569411
0002b0 42 d6 23 be 6c 05 c3 3d 44 ed 8b bd 2e 1d 70 be
       -0.15999702 0.095225185 -0.06832364 -0.23448631
0002c0 0e e5 17 be 93 95 2a be 44 2d 98 3d f8 a9 b6 bd
       -0.14833471 -0.1665862 0.07430509 -0.08919138
0002d0 dc 0a 28 be 6c 39 03 be 69 49 df 3c b9 d8 48 3d
       -0.16410393 -0.12814873 0.027256684 0.049034808
0002e0 59 86 e6 3c 82 ec ba 3b f5 54 1a bd 73 59 93 bd
       0.028140234 0.0057044635 -0.037678678 -0.071947955
0002f0 a5 ea 9f 3d 75 76 85 bd ef f9 49 bc 2b 64 9b 3d
       0.07808427 -0.065167345 -0.012327655 0.07587465
000300 d6 8e 7e be 80 92 bb bd f3 c4 f0 bd 94 1a df bd
       -0.24859175 -0.09158802 -0.11756315 -0.10893741
000310 a1 79 90 be 75 43 3e be 76 3f 80 be 88 6d d0 3d
       -0.28217795 -0.1858042 -0.25048417 0.101771414
000320 53 40 02 3d d5 fd 4e be 18 73 2a bd bd 77 3e be
       0.031799626 -0.20214017 -0.04161367 -0.18600364
000330 84 dd 66 be 53 b5 29 bd 51 fb 10 be 42 0e 89 bd
       -0.22545439 -0.04143269 -0.1415837 -0.066921726
000340 d2 a0 84 be 6c a9 66 bd c4 0e 68 be d7 27 35 be
       -0.25903946 -0.056313917 -0.22661883 -0.17690979
000350 46 e5 81 be 1c 16 87 be 16 c0 96 bd 5c 86 aa be
       -0.25370234 -0.26384056 -0.07360856 -0.33305633
000360 36 87 dc be dc 07 dd bd 56 b9 84 be f7 c3 35 be
       -0.43071908 -0.10792515 -0.2592265 -0.17750536
000370 0c 70 89 be e6 df 9c be 0f 7e a0 be e7 57 7e be
       -0.26843297 -0.3063957 -0.31346175 -0.2483822
000380 90 0a fc 3d ce c0 fb bd af 66 19 be ce bd ca be
       0.12306702 -0.12292634 -0.14980577 -0.39597934
000390 f8 43 30 be 8b 16 da bc 89 e5 93 be 8e ca ab be
       -0.17213428 -0.026622077 -0.2888606 -0.33552974
0003a0 49 9f 91 bd 61 a5 89 be a6 d8 74 be 90 05 9c be
       -0.07110459 -0.26883987 -0.2391077 -0.30472994
0003b0 dc 4e a3 3b 4b 89 99 be ae 05 66 be 19 96 76 bd
       0.004983766 -0.2998756 -0.22463104 -0.060201738
0003c0 23 f3 ff bd 75 b0 d3 bd c5 68 a7 bc d2 4a cb be
       -0.124975465 -0.10336391 -0.0204357 -0.3970552
0003d0 d0 09 20 be 1b 2c e2 be 25 2f 87 be 8c 0e 36 bd
       -0.15628743 -0.44174275 -0.26403156 -0.044447467
0003e0 98 7c d3 bd eb 5a 38 be 6d fc aa be a1 5c e2 bd
       -0.10326499 -0.18003432 -0.3339571 -0.11052824
0003f0 c2 da 8f be 64 ba 5c be 1c f5 72 be 4f fb d4 be
       -0.28096586 -0.21555477 -0.23726314 -0.41597983

fc_layers.0.weight f4 [64]
000000 e3 ef 28 3f b7 81 22 3f b9 45 13 3f 5a 90 20 3f
       0.6599104 0.6347918 0.57528263 0.62720263
000010 15 8f 2c 3f 62 ca ff 3e 21 fe 1e 3f 0f dd 03 3f
       0.67405826 0.49959093 0.6210652 0.51509184
000020 ad 10 14 3f d7 1e 0e 3f f5 52 2e 3f 7a 6a 35 3f
       0.57837945 0.5551581 0.6809533 0.70865595
000030 34 9c 09 3f 38 5d 0a 3f c0 c9 0e 3f 90 27 16 3f
       0.5375397 0.5404849 0.55776596 0.5865412
000040 26 2e 16 3f 27 e1 04 3f 9f 34 31 3f 89 ac 11 3f
       0.58664167 0.51906055 0.6922092 0.5690389
000050 8c d7 04 3f a8 b6 1a 3f cd e9 18 3f 5b 78 16 3f
       0.518914 0.6043496 0.5973175 0.587774
000060 d2 b5 0d 3f df 41 d7 3e 9a cc 01 3f 94 3e 09 3f
       0.5535556 0.42042443 0.5070282 0.5361111
000070 57 f2 17 3f 45 30 1e 3f 4f 86 2a 3f ee e6 3e 3f
       0.59354156 0.61792403 0.6661119 0.7457112
000080 8f 2b 0e 3f 47 44 22 3f 77 30 f8 3e f8 9d 1c 3f
       0.55535215 0.6338543 0.48474476 0.6117854
000090 59 12 c6 3e 48 16 22 3f 31 03 eb 3e 07 3b e3 3e
       0.38685873 0.6331525 0.45900872 0.44380972
0000a0 3b 82 13 3f 31 4b 24 3f 79 94 1d 3f 34 d2 0f 3f
       0.5762059 0.64177233 0.61554676 0.5618012
0000b0 e7 0c 29 3f 8e 19 ee 3e 59 7c 2d 3f 40 e6 26 3f
       0.6603531 0.46503872 0.67767864 0.65195084
0000c0 2f 0a 16 3f e0 ff 19 3f 26 ae 20 3f d1 4b 0b 3f
       0.5860929 0.6015606 0.6276573 0.5441256
0000d0 12 78 00 3f f8 e5 00 3f 32 3d bc 3e c0 dd 1e 3f
       0.5018321 0.50350904 0.36765438 0.62057114
0000e0 c5 cb 13 3f 3b cd 21 3f 99 94 10 3f 4b 1f f3 3e
       0.577328 0.6320378 0.5647674 0.47484812
0000f0 e9 4c 3d 3f 7c 4d 26 3f 2d a3 34 3f 91 7b 0b 3f
       0.7394548 0.6496198 0.70561486 0.5448542

fc_layers.0.bias f4 [64]
000000 d3 4d 51 bf 02 b8 f0 3e 40 f4 1a be 6d b6 aa 3e
       -0.81759375 0.47015387 -0.15132236 0.33342305
000010 3d fc 73 bf f4 b3 a2 3e 6b 79 33 3e 1c ef 0a be
       -0.9530676 0.31777918 0.17526786 -0.13567775
000020 34 d2 fe 3e 73 79 67 3d 03 ae 42 be 5e 2c 6a 3e
       0.49769747 0.056512307 -0.19011693 0.22868487
000030 70 ea 08 be 5f 65 68 3d 5b bc df bd 19 13 fa be
       -0.13370681 0.0567373 -0.10924598 -0.48842695
000040 e6 ed 7c 3f 9d 43 50 3e 5a b2 a2 be 72 be 6b 3d
       0.98800504 0.20338292 -0.31776696 0.05755467
000050 01 82 f1 3e 55 d6 38 bf fd 20 28 3f 1b 10 0d bf
       0.47169498 -0.72202045 0.65675336 -0.551027
000060 b7 fe 34 bf 7b 0a 82 3e b1 93 8c 3e af 1d 96 3d
       -0.70701164 0.2539862 0.2745643 0.073298804
000070 b7 61 eb bd 1d 8a a9 be 4b 23 f8 bd f2 39 63 3f
       -0.11493247 -0.33113185 -0.121161066 0.8876029
000080 0d 73 63 be f2 d7 dd bd 8f b5 68 be b6 bb ae bd
       -0.22211857 -0.10832204 -0.22725509 -0.08531897
000090 ac d6 14 3e 9a 75 5f be 61 e8 c3 be 4e 41 8e bd
       0.14535016 -0.21822205 -0.3826323 -0.0694605
0000a0 4e 35 16 bf b5 76 0d 3f cb 35 fd bc 93 45 c0 be
       -0.58675086 0.5525926 -0.03090944 -0.3755308
0000b0 ff a2 e1 3e f3 f3 89 be 45 86 db bd f5 f5 80 be
       0.4406967 -0.2694393 -0.10718969 -0.2518765
0000c0 9c 04 16 3f 1f fa 29 3e 2e 7d ea bd 48 6f 0a 3e
       0.58600783 0.1659932 -0.114496574 0.13519013
0000d0 0c cc ef 3e f0 fb 0b 3d a8 24 86 be 59 17 20 3e
       0.46835363 0.034175813 -0.26199841 0.15633906
0000e0 bc 0b f6 bc cc f5 bd be 6e 9e c7 be 5b aa 08 bf
       -0.030034892 -0.3710159 -0.3898806 -0.5338494
0000f0 24 28 73 3f e3 ac 29 3e 8f 64 5f be 85 1f df 3d
       0.94983125 0.16569857 -0.21815704 0.10894684

fc_layers.0.running_mean f4 [64]
000000 ef dd 35 bd 9d 12 56 3d b1 e0 46 3d c1 1d ef bc
       -0.044401105 0.052263845 0.048554126 -0.029188992
000010 29 b1 d6 bc 0b 7a 1e 3d 02 8f a8 3d 74 38 ec be
       -0.026207523 0.038690608 0.082304016 -0.4613682
000020 22 04 81 3d 10 21 a4 3d 1c c2 29 be 62 6c cf 3c
       0.062996164 0.08014119 -0.16577953 0.025320236
000030 39 bd ca bb a0 86 93 bd a9 b3 de bd be 1f 6c bd
       -0.006187108 -0.07203412 -0.10874111 -0.05764746
000040 da e3 1d 3d a4 91 74 3d 35 b2 11 bd b9 3d cf 3c
       0.038547374 0.059709206 -0.035570342 0.025297986
000050 60 db 56 3d 85 e5 12 bd 9b 33 59 3d 09 af 6e 3c
       0.052455306 -0.035863418 0.05302773 0.014568099
000060 c0 69 22 bd 73 8a 27 bd 46 26 d5 bc 50 f6 2b bd
       -0.039651632 -0.04090352 -0.026019227 -0.04198295
000070 04 3b aa 3d d4 00 51 bd ed 0d 7e bd ad e6 4b 3d
       0.083120376 -0.05102618 -0.062025 0.049780536
000080 96 1d a3 be 18 79 d8 3d 2f 9d 9a 3c 9a 7d a4 3d
       -0.3185851 0.10569972 0.01887378 0.08031769
000090 82 8d 82 bc 3b a1 26 bb ec b7 70 bd fb 87 8b bb
       -0.015936617 -0.002542569 -0.05876915 -0.0042581535
0000a0 a6 f1 a0 3d 54 43 6b bd dc 6f 75 3d d0 7b 51 bd
       0.07858591 -0.057437256 0.05992113 -0.051143467
0000b0 f9 96 49 bc 68 17 88 39 72 45 e9 bd e0 78 1c be
       -0.012304061 0.0002595738 -0.11390199 -0.15280485
0000c0 95 39 2a 3b 7b 50 a4 bd a4 9d e1 3c 66 79 c1 3c
       0.0025974263 -0.08023163 0.02754099 0.023617458
0000d0 2a 14 cc bd 6f 2a a8 bd f9 6f 59 3a e4 32 cc 3d
       -0.099647835 -0.082112186 0.00082945783 0.09970644
0000e0 9a 8f 85 3d b1 54 9e bd 7a f5 3f bd f8 3a 9a bb
       0.065215304 -0.07730997 -0.046864964 -0.0047067367
0000f0 4f 25 10 3d 8e 97 a3 3b d3 99 69 bd 1e 7b 2c 3c
       0.03519183 0.004992432 -0.057031464 0.0105274

fc_layers.0.running_var f4 [64]
000000 8a 25 80 3c b5 bb 5c 3c aa 7f 93 3a 94 88 d9 3c
       0.0156429 0.013472487 0.0011253257 0.026554383
000010 0a 97 e9 3b 1a dc ac 3c d0 1e 6b 3d 53 39 fe 3b
       0.007128601 0.021101046 0.057402432 0.0077582984
000020 25 ec fd 3b a3 d2 5e 3d 9e 4b ae 3d d6 dd 57 3b
       0.007749098 0.054400098 0.085105166 0.003293862
000030 f5 4e 19 37 b5 7f 94 3b 36 fc 0d 3b ff 1e 27 3c
       9.137894e-06 0.0045318254 0.0021665222 0.010200261
000040 60 c2 46 3a af c2 96 3a 50 ca 44 3c 0a 65 6a 3c
       0.0007582065 0.0011502112 0.012011126 0.014306316
000050 64 f1 c8 3c 05 f8 39 3c 8e a6 2e 3d 9d f3 c6 38
       0.024529167 0.011350636 0.042639308 9.486752e-05
000060 ad 9e 73 3c 01 6a 72 3a 17 c8 28 39 3a ff 31 3c
       0.014869374 0.0009247363 0.00016096268 0.010864073
000070 5a 24 44 3d a3 1b b9 3c cd 1c b0 3c 68 c8 99 3c
       0.04788623 0.022596186 0.021498108 0.018772319
000080 e3 87 06 3c 9c b6 92 3c 4c 15 00 3c 8b 69 36 3d
       0.008211109 0.01790934 0.007817578 0.044534247
000090 61 94 b8 3b f3 f9 93 3c f4 3d e7 3c 7c 7a d9 35
       0.0056329225 0.018063521 0.028227784 1.6203408e-06
0000a0 bb 4f 85 3b 0e d6 9d 3c b1 3c 81 3c d6 9f f3 3c
       0.0040683425 0.019267108 0.01577601 0.029739302
0000b0 b1 bd 0e 3d 4c e0 2c 37 96 df 6f 3d 36 d1 27 3c
       0.034848873 1.0304222e-05 0.058562838 0.010242751
0000c0 79 8a a2 3b 7e ab 5a 3c 89 a8 e9 3c 62 b2 81 3b
       0.004960355 0.013346551 0.028522747 0.0039580325
0000d0 e2 32 29 3b fd 98 0a 3d 79 e2 ba 38 e1 de 8e 3d
       0.0025817682 0.033837307 8.911355e-05 0.069761045
0000e0 74 dd 78 3b 25 7d 31 3d 1a eb c3 3c 37 1c 1f 38
       0.0037973793 0.043332238 0.023915816 3.793483e-05
0000f0 c8 4a a9 3c 71 08 ba 3c 44 41 d3 3c d1 69 7f 39
       0.020665541 0.022709103 0.025787957 0.00024358115

fc_layers.1.weight f4 [32, 64]
000000 13 ea 9a 3d ea be c5 3d 71 07 44 3d 2c 91 27 3c
       0.07564177 0.096555546 0.04785866 0.010227483
000010 63 43 08 3e 11 cb 59 bd df 63 8a bd 26 71 93 3d
       0.13306956 -0.053172175 -0.0675733 0.07199316
000020 54 b5 6a bd 8d 3f e0 3c d0 54 a9 ba d1 53 ca bc
       -0.057301834 0.027374053 -0.0012918953 -0.02469817
000030 2b 58 75 3d a1 0a e9 3d 9b 66 f8 3b 05 05 ad 3d
       0.059898537 0.113789804 0.007580591 0.08448223
000040 a6 16 f8 bd 6e c8 01 bd 6c 43 1d 3c 9e 66 c6 3c
       -0.12113695 -0.031685285 0.009598594 0.024218854
000050 49 84 ad bd 88 a0 89 3d 2d 7e 02 bc 09 aa 98 bd
       -0.08472497 0.06720072 -0.007964653 -0.07454307
000060 e1 86 39 3b db 81 e1 bd 9a 42 b1 3c 6f 4c 84 3c
       0.0028309154 -0.11011096 0.021638203 0.016149728
000070 65 be 27 3d 5a 6a d0 bd c7 81 81 bd 62 a7 b0 bd
       0.04095306 -0.10176535 -0.06323581 -0.08625676
000080 83 d8 75 3b 09 49 d8 3d 79 e2 a3 bc 74 6b 26 3d
       0.0037513084 0.10560805 -0.020005452 0.04062982
000090 ad bc 95 bd 84 dc dc 3d 25 91 ad bd b4 33 71 bd
       -0.07311378 0.107842475 -0.0847495 -0.0588872
0000a0 c0 ca 80 3d bb 6a 21 bd 07 f0 94 bc b6 38 bf bd
       0.062886715 -0.039408427 -0.01818086 -0.09336989
0000b0 ac be 8e bd ad 96 c8 3c 89 f0 6d 3d 1d 92 0b 3e
       -0.069699615 0.02448591 0.05809072 0.13629957
0000c0 54 8f ef bd 23 39 2b bc ba a7 9d 3d a8 31 1e bd
       -0.116972595 -0.010450634 0.07698007 -0.038621575
0000d0 03 d9 e6 bd c5 a4 cc 3d e3 29 a8 3b 0c c5 2d bd
       -0.112718605 0.09992365 0.0051319464 -0.042424247
0000e0 95 f2 88 bd d0 34 bb 3d 57 9b 86 bd fa 4e 05 3e
       -0.06686894 0.091409326 -0.065725975 0.13018408
0000f0 a7 93 83 bc 8b 3c a6 bd a1 3b 8f bd a1 60 22 bd
       -0.016061617 -0.081170164 -0.06993795 -0.039642934
000100 29 e3 ce 3c 5a 31 cb bc 7d d1 13 bc 2b 55 5c 3d
       0.025254803 -0.024803806 -0.009022114 0.05379216
000110 b3 47 4b 3e a8 0b d1 bd f0 63 aa 3d 3f b0 db bc
       0.1985157 -0.102073014 0.08319843 -0.02681744
000120 77 8f 18 be 51 c8 59 bd 03 6d dd 3d 43 e0 3e bd
       -0.14898477 -0.053169552 0.10811808 -0.04660059
000130 3e 20 a1 bd 0f 97 a6 bc 40 d9 27 bd 82 99 97 bd
       -0.07867478 -0.020335702 -0.04097867 -0.07402326
000140 2e 78 0d be 55 0a 60 3d 03 1e 6e 3d 96 a3 9b 3d
       -0.13815376 0.054697353 0.05813409 0.07599561
000150 75 0a bb 3d 67 2b e6 ba ce 5e 48 3d 54 4f 57 bd
       0.09132854 -0.0017560542 0.048918538 -0.052565888
000160 b3 71 0a 3e 6a 5f bb 3d 2d c9 4a bc c7 9c 8b 3c
       0.13519935 0.09149058 -0.012377066 0.01704253
000170 4e 3c cf 3d cf 79 3b 3d 0f 46 ac bd 66 62 d5 bd
       0.10118924 0.045770463 -0.084118 -0.10419159
000180 7d 48 8d 3c 92 a9 a5 3c a1 bb 10 3d 64 b8 89 3c
       0.01724648 0.020222459 0.035335187 0.016811557
000190 ea 0d 45 3d f6 b9 ac 3d d3 0b c0 3c cd 76 05 bd
       0.048108973 0.08433907 0.023443138 -0.032584
0001a0 1a 90 ef 3d 52 b7 39 bd ae 57 b6 bd 57 6f e6 3d
       0.11697407 -0.045340843 -0.08903442 0.11251705
0001b0 14 79 93 bb 9c 0a a6 bd 73 cf 63 3d 0f 0d b7 3b
       -0.0045005176 -0.08107492 0.05561776 0.0055862735
0001c0 ec d2 ff bd 0e be 9d bb ed 02 7a bc 10 9d e5 bd
       -0.12491402 -0.004813916 -0.015259487 -0.11211598
0001d0 52 28 83 3d f1 e0 49 3d 21 19 f6 3d 2e c9 86 3c
       0.06404175 0.049286786 0.12016512 0.016453352
0001e0 15 d8 07 bd 04 ac 5e 3d cb 48 48 bd 0c d6 c7 3d
       -0.033165056 0.054363266 -0.048897546 0.09757623
0001f0 9d b6 b4 bd c0 2d 00 bd 19 d1 74 bd 9c d0 bf bd
       -0.08823893 -0.03129363 -0.059769724 -0.09365961
000200 57 73 28 3c 60 92 f7 bd 92 94 48 3d f4 02 b5 bd
       0.010281405 -0.12088466 0.048969813 -0.08838454
000210 cd ff 79 3c f0 81 14 3b cd 4b cb bd 64 25 1c bd
       0.015258742 0.0022660457 -0.09926567 -0.038121596
000220 02 7f b6 bd 03 a0 2f bd a3 f5 37 3c c9 12 d8 3d
       -0.089109436 -0.04287721 0.011227998 0.10550458
000230 e9 da 63 3b ac 6b 59 3d 6c 1e ce 3d 91 61 3d 3e
       0.0034767932 0.0530812 0.10064396 0.1849425
000240 83 c2 02 be f7 31 17 be 1e da af bd f3 46 f3 3d
       -0.12769513 -0.14765154 -0.085865244 0.11878767
000250 0b 34 ff bd 99 44 16 3e 41 9e 31 be 8d 9b c2 3c
       -0.12461098 0.14674605 -0.17345525 0.023755813
000260 bb 14 38 3e a3 81 77 bd ad 41 1e be f2 42 ba 3d
       0.17976658 -0.060426366 -0.15454741 0.090948
000270 2d 27 97 bd ca 67 f6 bc cf cb 9e 3d 77 8e 5d be
       -0.07380519 -0.030078787 0.07753717 -0.21636377
000280 20 8f ca 3d 4c f7 4b bd f9 ad bc 3d 5a c1 e8 3b
       0.0989058 -0.049796388 0.0921287 0.0071031274
000290 8d 2c a5 3d cd ea a7 bd 65 6e b2 3d 5e 84 77 b9
       0.08065138 -0.081990816 0.08712462 -0.00023605066
0002a0 0c 3f db 3d f0 85 f7 3c c5 67 1d bd 82 bd 09 3e
       0.107053846 0.030215234 -0.03842904 0.13451198
0002b0 29 3c 4f bd a7 33 93 bb 81 dd bd 3d cd 4e 15 bb
       -0.050594483 -0.0044922414 0.09270764 -0.0022782565
0002c0 78 a1 f7 bd b1 13 a1 3c 74 5d c5 bd ab de f3 bc
       -0.120913446 0.01966271 -0.096369654 -0.029769262
0002d0 d0 d0 7d bd 94 bf c5 3c 4b 5d 0f 3d d2 e4 da bc
       -0.061966717 0.024139203 0.03500108 -0.026720438
0002e0 a4 aa 35 3d aa b3 be bc 21 85 ce 3c cd ff 6e 3d
       0.04435219 -0.02327903 0.025209965 0.05834942
0002f0 6f e9 ef bd 6e fe 5a bd e9 f6 32 3c ce e0 3e bd
       -0.11714446 -0.0534653 0.010923126 -0.04660111
000300 e9 81 fb 3d 19 31 00 be e1 88 a8 3c 25 9c 6c bd
       0.12280638 -0.1251873 0.020573081 -0.0577661
000310 72 ad cd 3d ec 4d 89 bc 4c 01 43 bd 07 08 45 3d
       0.10042848 -0.016760789 -0.04760866 0.04810336
000320 53 fb 0f be 9b d9 2c 3d 96 a3 85 3d 57 33 af 3d
       -0.14060716 0.042199712 0.06525342 0.08554714
000330 e3 6e 4a bc 0c d9 88 bd c8 aa 4d bd cd 6e 1b 3e
       -0.012355539 -0.066820234 -0.050211698 0.15178986
000340 4b 2b 47 be 9b b6 88 3c b0 08 2e bd 14 f9 79 bd
       -0.19450109 0.016688636 -0.042488754 -0.061028555
000350 43 d0 10 be 73 9d 7d 3d 13 dc fa bd bb 3e 9d bc
       -0.14141946 0.061917733 -0.12249007 -0.019194951
000360 a6 36 a0 3d 20 16 96 bc 02 d9 1a 3d e8 00 52 bd
       0.07822923 -0.018321097 0.03780461 -0.051270396
000370 3e d2 93 bd ef 49 00 bd bb f8 d3 3d b3 32 8c bd
       -0.07217835 -0.03132051 0.10350176 -0.068456076
000380 7b 28 6a 3d 52 ba d9 3d 79 9d 54 bc e0 4d 00 3d
       0.05716751 0.10631241 -0.0129769975 0.031324267
000390 10 0d ad bc 8a b3 8f 3d d1 22 2a 3d a8 85 30 bb
       -0.021124393 0.07016666 0.04153711 -0.0026935134
0003a0 54 94 ba 3c e7 28 12 3d c9 01 46 bd e8 c9 b3 3d
       0.022775806 0.03568354 -0.048341546 0.08778745
0003b0 75 e9 14 3c 30 f8 06 3c b9 f7 81 3d bf db 2f bd
       0.009088864 0.008237883 0.063460775 -0.042934176
0003c0 ef 4a f0 bd d3 3f b5 bd 7d bc 48 bd 14 7e 77 3d
       -0.117330424 -0.08850064 -0.04900788 0.06042297
0003d0 ed 67 2d bd 35 0a 90 3d 1d 00 b3 3d 05 ad e2 bd
       -0.04233544 0.07033197 0.08740256 -0.11068157
0003e0 ff 66 4d 3d d4 8a fd 3d 57 7a f7 3c 02 19 f4 3b
       0.050147053 0.12379995 0.030209703 0.00744927
0003f0 75 41 86 bd 0f 08 2e bd 8d c1 f4 3d 7d 71 96 3d
       -0.06555454 -0.042488154 0.119509794 0.07345865

fc_layers.1.bias f4 [32]
000000 6a 81 b6 bd a7 72 9c be fc 18 29 be 4c 59 7c be
       -0.089114025 -0.30556223 -0.16513437 -0.24643439
000010 77 73 d5 be 2f 82 99 be cb 7c 4e be b6 78 4d be
       -0.41689655 -0.29982135 -0.20164792 -0.20065579
000020 ea a5 c1 bd d3 d5 40 be db 03 19 be bc 9d 24 be
       -0.09455474 -0.18831567 -0.14942877 -0.16075796
000030 13 9c be be f8 b3 f0 bd 20 8d 93 be eb 7a c6 be
       -0.3722845 -0.11753076 -0.28818607 -0.38765654
000040 f8 4b 25 be a3 40 7a be 2e 07 a1 bd 2b 96 89 be
       -0.16142261 -0.2443872 -0.078626975 -0.26872382
000050 39 76 55 be 0a f7 07 bf 12 d9 62 be 89 5d 6b be
       -0.2084588 -0.53111327 -0.22153118 -0.229849
000060 18 33 43 be d7 1c e9 bd d9 60 67 be cc 2b 06 be
       -0.1906246 -0.11382454 -0.22595538 -0.13102645
000070 f6 f0 2c be 34 eb 6f be f9 c5 44 be 1e 8e 2b be
       -0.16888794 -0.23429567 -0.19216146 -0.16753432

fc_layers.4.weight f4 [1, 32]
000000 7a 5a 09 3b 4d fc f8 bb ec 1e e5 bb 44 24 0e 3c
       0.002095847 -0.007598436 -0.0069922116 0.008675639
000010 f1 6d c9 3c ec 56 0e 3c 30 f2 3d bd 47 50 7b 3c
       0.024588557 0.008687716 -0.046373546 0.015338964
000020 ca f4 16 bd 76 e5 c2 bc 04 a8 0a bd cd ff b1 ba
       -0.036854543 -0.023791056 -0.03385164 -0.0013580263
000030 27 a4 10 bc 4f 9f 08 bb de 19 cd 3c 5b fe be bb
       -0.0088281995 -0.0020846908 0.025036748 -0.0058286614
000040 1d 6c 57 bc b3 80 90 bc 19 d0 f5 bb c1 b8 21 bc
       -0.013148335 -0.017639494 -0.007501614 -0.009870709
000050 e9 ff d0 39 9b 22 01 bc 25 4a e6 3b cc 5a 8e 3c
       0.0003986352 -0.007881786 0.0070278817 0.01737728
000060 90 dd 2b bc bc fd 94 3b 52 cf 24 bc d1 93 60 bc
       -0.010489836 0.004546849 -0.010059195 -0.013707117
000070 b9 51 86 bc cb 38 e3 3c 8d 63 00 3c d2 9a 1a ba
       -0.01639639 0.027737042 0.007836235 -0.0005897704
